pytorchlightningimplementation/lightning_logs/version_1/checkpoints/epoch=2-step=2814.ckpt (torch, 99324 bytes, 6 tensors)

l1.weight f4 [10, 784]
-0.028154213 -0.035404045 0.0014751963 -0.016420893 0.026232563 0.007630855 0.029654916 0.026832823
0.020346481 -0.013213621 0.015422069 0.019105647 -0.025556792 0.017717417 -0.019774247 0.013101283
-0.0002532415 0.024341732 0.032394145 0.031861898 0.0116316825 0.016559131 0.030277181 0.00022526458
0.021343842 0.018703453 0.032461446 0.022071335 0.019903313 -0.034202427 -0.023966888 -0.014667179
-0.027323004 -0.0058740973 -0.010943329 0.032570925 0.010312624 0.01735415 0.015828345 -0.027585298
0.035574313 -0.07101489 -0.0800014 -0.069667846 -0.15944612 -0.21258499 -0.22465609 -0.17686793
0.029628824 0.0073320568 0.0018453412 0.030882936 0.016985435 -0.031447396 0.007569488 -0.01182658
0.01675408 -0.007444365 -0.035174936 1.1701277 1.1962008 -1.1665386 -0.9739699 -0.28698143
-0.8629101 -0.57137644 -0.6026659 -1.668041 -2.0122259 -1.5105796 -1.7687267 -2.1637778
-1.7516196 -1.7663754 -1.8319528 -0.68448937 -0.8816735 -0.34475657 -0.17771006 -0.22223583
0.014337085 0.015177783 -0.0076220855 -0.02035549 0.002068352 -0.02941366 0.02658625 1.1753912
1.3196375 -0.285078 -1.4779807 -0.64957833 -0.83961797 -2.1026013 -1.0950266 -2.0670216
-1.8415738 -0.9189329 -0.5032719 -0.090458766 -0.3384161 -1.2421689 -1.1231643 -0.26682177
-0.4969324 -1.7236301 -2.373813 -0.47640225 0.30388424 0.45415202 -0.44044304 -0.015636224
0.014718592 0.015390396 0.016268536 -0.0091536045 -0.23885255 -0.921335 -0.4123616 0.24238546
0.12366776 -0.30089805 -0.41471392 -0.58607554 -0.8621762 0.26441574 -0.05133047 -0.18391068
-0.42456046 -0.14713113 0.11492805 -0.24842033 -0.2248997 -0.28762376 -0.44119084 -0.6104553
-1.7342825 -1.2357585 -0.45744148 0.0055876896 0.005999174 -0.011818001 -1.1109834 -0.47921675
-0.96950763 -0.9550566 -0.8511202 -0.98801035 -0.36898243 -0.10843339 -0.058740146 -0.51556146
-0.28524998 0.01180454 0.22208822 0.2634634 0.30876914 -0.15893812 -0.121393174 -0.23738381
-0.5665529 -0.43554366 0.078355305 -0.6040568 -1.5758473 -1.9075234 -1.5522022 -0.81147265
0.0061222054 0.027472716 -0.6036935 -0.44290754 0.21271293 -0.9272834 -0.76643956 -0.59615314
-0.70687264 -1.172067 -0.23827916 -0.5299225 -0.25535232 -0.023519015 0.075651236 0.052003883
0.056214597 0.18969904 0.23777594 0.21137656 -0.50118345 0.107172646 0.31801823 -0.35551843
-2.752359 -3.2576356 -1.8391372 -1.0192149 -0.035574593 -0.011688795 -0.6110964 -0.6903607
-0.525377 0.42228144 0.35039157 0.4799427 -0.7063477 0.10142777 0.07568582 -0.12562756
0.08356991 0.3823377 -0.17119934 0.011486525 0.33795 0.5370267 0.39492193 0.68235123
0.44143012 0.21971986 -0.12927575 -0.8322088 -2.683938 -2.7596269 -2.3007545 0.23126642
0.02614376 -0.021294713 0.2952228 -0.7465642 -1.0670432 -0.07800493 0.78827554 0.3137316
-0.053064734 0.19263095 -0.0070771095 -0.33061135 0.2466477 0.24505118 0.29244253 0.3348681
1.016189 0.47973222 0.42422763 0.18265888 0.38347244 0.507453 0.15543655 0.089509204
-1.7512082 -2.9535134 -2.2198505 0.019317526 0.0075938962 -0.010247018 -0.28877488 -1.2832861
00000000: aaa3 e6bc d503 11bd 605b c13a 1c85 86bc
00000010: ace5 d63c 400c fa3b deee f23c 82d0 db3c
00000020: aaad a63c f27d 58bc d8ac 7c3c 7283 9c3c
00000030: 7a5c d1bc 1e24 913c 9afd a1bc c4a6 563c
00000040: 80c5 84b9 5068 c73c b9af 043d 9f81 023d
00000050: d092 3e3c 04a7 873c da07 f83c 0035 6c39
00000060: 48d9 ae3c fc37 993c 4bf6 043d f2ce b43c
00000070: 460c a33c d817 0cbd 3556 c4bc 9c4e 70bc
00000080: 7ed4 dfbc 807b c0bb a64b 33bc 1769 053d
00000090: 48f6 283c 4a2a 8e3c 72aa 813c 90fa e1bc
000000a0: 5fb6 113d 4170 91bd c6d7 a3bd 04ae 8ebd
000000b0: d845 23be e1af 59be 3f0c 66be de1c 35be
000000c0: 26b8 f23c c041 f03b 60df f13a 36fe fc3c
000000d0: 0a25 8b3c fcce 00bd 7809 f83b 46c4 41bc
000000e0: da3f 893c dcef f3bb 9813 10bd bfc6 953f
000000f0: 1c1d 993f 2351 95bf 1756 79bf 3bef 92be
00000100: ade7 5cbf ba45 12bf 5048 1abf 5e82 d5bf
00000110: 4fc8 00c0 ac5a c1bf a365 e2bf 567b 0ac0
00000120: 1235 e0bf 9718 e2bf 6e7d eabf b23a 2fbf
00000130: 5bb5 61bf ef83 b0be a0f9 35be ca91 63be
00000140: 18e6 6a3c 3cac 783c b0c2 f9bb 8ec0 a6bc
00000150: 308d 073b eaf4 f0bc 68cb d93c 3873 963f
00000160: e2e9 a83f bef5 91be 792e bdbf c44a 26bf
00000170: 34f1 56bf 0591 06c0 d529 8cbf 154a 04c0
00000180: b1b8 ebbf 303f 6bbf 6dd6 00bf 7242 b9bd
00000190: e044 adbe 64ff 9ebf d9c3 8fbf dd9c 88be
000001a0: ec6d febe e99f dcbf 8dec 17c0 ffea f3be
000001b0: b796 9b3e 9d86 e83e c081 e1be 8a17 80bc
000001c0: 4026 713c 0028 7c3c 9845 853c 00f9 15bc
000001d0: c395 74be 9cdc 6bbf 0f21 d3be e533 783e
000001e0: 8645 fd3d 4f0f 9abe 6255 d4be 0c09 16bf
000001f0: 94b7 5cbf 8061 873e e63f 52bd 1553 3cbe
00000200: fd5f d9be 8ba9 16be 665f eb3d e661 7ebe
00000210: 1b4c 66be 6c43 93be c4e3 e1be cc46 1cbf
00000220: f8fc ddbf 562d 9ebf c535 eabe f018 b73b
00000230: b894 c43b 4aa0 41bc b434 8ebf e65b f5be
00000240: a731 78bf 977e 74bf 03e3 59bf 3fee 7cbf
00000250: 44eb bcbe 5312 debd 8299 70bd d6fb 03bf
00000260: 490c 92be d467 413c 186b 633e ade4 863e
00000270: fd16 9e3e adc0 22be fc9c f8bd be14 73be
00000280: 9c09 11bf 94ff debe bf78 a03d 77a3 1abf
00000290: 5db5 c9bf ba29 f4bf 90ae c6bf acbc 4fbf
000002a0: c89c c83b 760e e13c a88b 1abf c7c4 e2be
000002b0: 6bd1 593e 7262 6dbf 6235 44bf 7e9d 18bf
000002c0: 9bf5 34bf 4b06 96bf 74ff 73be 00a9 07bf
000002d0: 8abd 82be f3aa c0bc 09ef 9a3d 0602 553d
000002e0: 4741 663d 7740 423e 897b 733e 1973 583e
000002f0: 8f4d 00bf 557d db3d 49d3 a23e 8306 b6be
00000300: a626 30c0 1a7d 50c0 d968 ebbf a275 82bf
00000310: aab6 11bd 5c82 3fbc d070 1cbf 7bbb 30bf
00000320: 1b7f 06bf 4635 d83e 8666 b33e 0dbb f53e
00000330: 34d3 34bf 5db9 cf3d 2b01 9b3d 83a4 00be
00000340: b326 ab3d c4c1 c33e e14e 2fbe fa31 3c3c
00000350: c807 ad3e 957a 093f 3533 ca3e 92ae 2e3f
00000360: 2103 e23e 3efe 603e dd60 04be a30b 55bf
00000370: a4c5 2bc0 ba9d 30c0 903f 13c0 1bd1 6c3e
00000380: 702b d63c 4072 aebc 7127 973e d51e 3fbf
00000390: df94 88bf 0cc1 9fbd 6dcc 493f 6ea1 a03e
000003a0: 685a 59bd 0c41 453e 19e7 e7bb e445 a9be
000003b0: 3791 7c3e b2ee 7a3e 07bb 953e d573 ab3e
000003c0: 7b12 823f 769f f53e 5d34 d93e ee0a 3b3e
000003d0: 8056 c43e 71e8 013f c22a 1f3e 9a50 b73d
000003e0: 9727 e0bf 5d06 3dc0 0812 0ec0 ca3f 9e3c
000003f0: 38d6 f83b 1ce3 27bc 4dda 93be b842 a4bf

l1.bias f4 [10]
-1.7566059 0.39567944 -0.12008007 -1.4604611 -0.20019305 -0.13669196 -0.7949864 -0.12506302
-0.104237266 -1.3437667
00000000: 76d8 e0bf 7f96 ca3e 8aec f5bd 64f0 babf
00000010: 68ff 4cbe faf8 0bbe 3b84 4bbf 8510 00be
00000020: 597a d5bd 8c00 acbf

exp_avg f4 [10, 784]
0.0 0.0 0.0 0.0 0.0 0.0 0.0 0.0
0.0 0.0 0.0 0.0 0.0 0.0 0.0 0.0
0.0 0.0 0.0 0.0 0.0 0.0 0.0 0.0
0.0 0.0 0.0 0.0 0.0 0.0 0.0 0.0
0.0 0.0 0.0 0.0 0.0 0.0 0.0 0.0
0.0 6e-45 6e-45 6e-45 6e-45 6e-45 6e-45 6e-45
0.0 0.0 0.0 0.0 0.0 0.0 0.0 0.0
0.0 0.0 0.0 7.649512e-07 -2.956442e-20 7.164117e-17 5.301446e-15 1.3683566e-14
8.4538335e-15 1.5739473e-27 1.6379987e-23 2.1750965e-21 3.1103023e-21 -7.732804e-07 -5.09662e-07 8.991503e-06
2.8517019e-05 2.456366e-05 4.253691e-06 -2.1440697e-15 2.3985568e-19 6.347102e-20 6e-45 6e-45
0.0 0.0 0.0 0.0 0.0 0.0 0.0 5.943083e-06
5.1781317e-06 5.014238e-16 1.8125221e-14 -8.765396e-16 5.3303063e-07 1.2180367e-06 -3.4951384e-08 -5.5329812e-05
-0.00021830246 -0.000115191084 -4.021792e-06 -3.5864134e-05 -2.5407197e-05 -5.170493e-05 -0.0001111534 -0.0001192975
-7.0359565e-05 -1.1585364e-05 -2.339524e-06 -7.1879504e-07 1.09998045e-10 -1.6381234e-21 6e-45 0.0
0.0 0.0 0.0 2.9995943e-05 2.3633167e-05 5.578375e-10 5.551911e-10 4.1841932e-07
-6.611956e-07 -1.3544312e-05 -7.429781e-05 -0.00043936522 -0.00044105953 -0.00020010228 2.1014544e-05 0.00024510425
0.0005262884 0.00063710427 0.00056985393 0.00019608387 1.2030888e-05 -2.4223955e-05 -4.350823e-06 -5.980527e-07
6.866868e-10 -1.570776e-22 6e-45 0.0 0.0 0.0 1.4632915e-08 7.726228e-05
6.180983e-05 9.875441e-09 -3.2070322e-09 3.649132e-07 -3.6545676e-05 -0.00026524335 -0.00030018575 -0.0004344219
-0.00031368603 0.00012209336 0.00017061559 4.1749365e-05 0.00024213252 0.00031313987 -6.750271e-05 0.000119955424
0.00022226914 0.00038811637 0.0004594379 9.181761e-05 1.8530262e-09 -7.144749e-26 4.102881e-31 9.892521e-31
0.0 0.0 6e-45 6e-45 -3.1849176e-08 -4.0026143e-07 -1.0740977e-06 -1.4015637e-07
-6.778211e-07 -7.910461e-05 -0.00039344144 -0.00025460497 -0.00022494694 -0.00016184237 0.00018327989 0.0014672391
0.0025876302 0.0030279183 0.002928858 0.002859574 0.0014042159 0.00032340427 0.0004255068 0.00031119975
1.4471583e-05 1.3450487e-05 1.8723708e-11 -6.755499e-30 0.0 0.0 6e-45 -2.84e-43
-1.08070275e-07 -1.4177998e-06 -3.3858341e-06 -4.7270816e-05 -8.527333e-05 -0.00037988945 -0.00028307724 -0.00034729403
-5.4430453e-05 0.00028001168 0.002737822 0.0035299216 0.0032669415 0.0031901486 0.0032581626 0.0031264047
0.002765788 0.001979568 0.00020203202 0.0004473143 0.00021405696 2.2840425e-06 1.1248973e-18 -1.901053e-29
0.0 0.0 -1.5314919e-07 -1.845644e-07 -1.2029786e-07 -1.2388617e-06 -9.54926e-06 -0.00029364091
-0.0002616767 -0.0005793777 -0.0005053312 -1.0998157e-05 0.0003311269 0.0019151949 0.0034415275 0.0033087032
0.00320911 0.0030570445 0.0030995081 0.0032601682 0.003036986 0.002231636 -0.00019420424 -0.00021353923
9.6937336e-05 -2.7483427e-08 2.642027e-19 0.0 0.0 0.0 -6.283043e-08 -7.853804e-08
00000000: 0000 0000 0000 0000 0000 0000 0000 0000
00000010: 0000 0000 0000 0000 0000 0000 0000 0000
00000020: 0000 0000 0000 0000 0000 0000 0000 0000
00000030: 0000 0000 0000 0000 0000 0000 0000 0000
00000040: 0000 0000 0000 0000 0000 0000 0000 0000
00000050: 0000 0000 0000 0000 0000 0000 0000 0000
00000060: 0000 0000 0000 0000 0000 0000 0000 0000
00000070: 0000 0000 0000 0000 0000 0000 0000 0000
00000080: 0000 0000 0000 0000 0000 0000 0000 0000
00000090: 0000 0000 0000 0000 0000 0000 0000 0000
000000a0: 0000 0000 0400 0000 0400 0000 0400 0000
000000b0: 0400 0000 0400 0000 0400 0000 0400 0000
000000c0: 0000 0000 0000 0000 0000 0000 0000 0000
000000d0: 0000 0000 0000 0000 0000 0000 0000 0000
000000e0: 0000 0000 0000 0000 0000 0000 0c57 4d35
000000f0: 319d 0b9f 7c31 a524 3501 bf27 4f80 7628
00000100: 6d4a 1828 e366 f912 e26a 9e19 7c58 241d
00000110: ff01 6b1d 6d93 4fb5 b5cf 08b5 36da 1637
00000120: d537 ef37 0f0e ce37 edba 8e36 1b7f 1aa7
00000130: f795 8d20 e1dd 951f 0400 0000 0400 0000
00000140: 0000 0000 0000 0000 0000 0000 0000 0000
00000150: 0000 0000 0000 0000 0000 0000 b26a c736
00000160: d0bf ad36 8c86 1026 ea41 a328 35a5 7ca6
00000170: 9615 0f35 6c7b a335 741d 16b3 ef11 68b8
00000180: 1fe8 64b9 be92 f1b8 eef2 86b6 d26c 16b8
00000190: 8a21 d5b7 bfdd 58b8 071b e9b8 5c2f fab8
000001a0: 018e 93b8 c25e 42b7 b700 1db6 38f3 40b5
000001b0: 65e3 f12e d48b f79c 0400 0000 0000 0000
000001c0: 0000 0000 0000 0000 0000 0000 cc9f fb37
000001d0: d73f c637 5356 1930 1a9c 1830 1da3 e034
000001e0: 047d 31b5 613c 63b7 55d0 9bb8 9a5a e6b9
000001f0: 023e e7b9 8cd2 51b9 6448 b037 5681 8039
00000200: 9ef6 093a 5803 273a 4062 153a dd9b 4d39
00000210: 45d8 4937 8c34 cbb7 49fd 91b6 de89 20b5
00000220: 4ac1 3c30 2ae5 3d9b 0400 0000 0000 0000
00000230: 0000 0000 0000 0000 3e64 7b32 df07 a238
00000240: e69f 8138 a6a8 2932 b562 5cb1 4ae9 c334
00000250: 9f48 19b8 5c10 8bb9 4062 9db9 1fc3 e3b9
00000260: 3a76 a4b9 3006 0039 46e7 3239 0a1c 2f38
00000270: f4e4 7d39 ec2c a439 3e90 8db8 9490 fb38
00000280: eb10 6939 197c cb39 b6e0 f039 348e c038
00000290: 90ad fe30 3ae5 b095 6725 050d ed83 a00d
000002a0: 0000 0000 0000 0000 0400 0000 0400 0000
000002b0: 8aca 08b3 83e3 d6b4 b729 90b5 e47d 16b4
000002c0: 83f3 35b5 f7e4 a5b8 d146 ceb9 807c 85b9
000002d0: bcdf 6bb9 3bb4 29b9 d22e 4039 6050 c03a
000002e0: 3b95 293b 0a70 463b 15f2 3f3b b167 3b3b
000002f0: ab0d b83a 968e a939 8e16 df39 8628 a339
00000300: faca 7237 67a9 6137 0bb2 a42d 8e04 098f
00000310: 0000 0000 0000 0000 0400 0000 cb00 0080
00000320: 4314 e8b3 3b4b beb5 3038 63b6 a744 46b8
00000330: c5d4 b2b8 e62b c7b9 fc69 94b9 0415 b6b9
00000340: 414c 64b8 88ce 9239 086d 333b 4256 673b
00000350: 2f1a 563b d011 513b e686 553b 5ee4 4c3b
00000360: 3942 353b a4bb 013b 8fd8 5339 8285 ea39
00000370: 7a74 6039 8d47 1936 6b01 a621 28ca c08f
00000380: 0000 0000 0000 0000 5471 24b4 ad2c 46b4
00000390: 392b 01b4 f746 a6b5 c235 20b7 d1f3 99b9
000003a0: a731 89b9 61e1 17ba 3478 04ba ba84 38b7
000003b0: 1a9b ad39 4707 fb3a 408b 613b d4d6 583b
000003c0: ee4f 523b b258 483b 1e21 4b3b 8ca8 553b
000003d0: 2c08 473b a440 123b 4ea3 4bb9 80e9 5fb9
000003e0: d64a cb38 b214 ecb2 2ff5 9b20 0000 0000
000003f0: 0000 0000 0000 0000 65ed 86b3 bea8 a8b3

exp_avg_sq f4 [10, 784]
0.0 0.0 0.0 0.0 0.0 0.0 0.0 0.0
0.0 0.0 0.0 0.0 0.0 0.0 0.0 0.0
0.0 0.0 0.0 0.0 0.0 0.0 0.0 0.0
0.0 0.0 0.0 0.0 0.0 0.0 0.0 0.0
0.0 0.0 0.0 0.0 0.0 0.0 0.0 0.0
0.0 6.90351e-11 4.182961e-10 1.1412742e-11 1.3249446e-16 6.471163e-14 8.615437e-14 7.452803e-15
0.0 0.0 0.0 0.0 0.0 0.0 0.0 0.0
0.0 0.0 0.0 9.1085467e-10 1.08284416e-10 4.8260782e-15 1.9418419e-08 5.077625e-08
6.6548997e-09 4.031792e-09 3.0090697e-10 6.208841e-08 9.234992e-08 3.8131937e-08 1.6768541e-07 1.5353121e-08
1.9297275e-07 3.0995247e-07 1.3546958e-08 8.213043e-10 7.2622075e-11 2.850623e-11 3.0784943e-12 2.2186643e-15
0.0 0.0 0.0 0.0 0.0 0.0 0.0 7.651508e-09
8.5727236e-10 2.0819032e-08 4.022744e-08 9.420633e-08 1.746588e-07 1.7544767e-07 5.023485e-07 9.3199486e-07
9.997091e-07 1.0149944e-06 1.0030732e-06 1.2389329e-06 2.3036023e-06 1.6511746e-06 1.0728603e-06 7.5859714e-07
6.0101075e-07 4.880909e-07 3.3806182e-07 9.844243e-08 4.9962082e-08 9.388241e-09 3.245654e-10 0.0
0.0 0.0 0.0 1.7629014e-10 1.09390066e-10 2.2752502e-08 5.245955e-08 2.5760244e-07
6.555659e-07 1.0977076e-06 1.9634317e-06 2.7641552e-06 3.3924423e-06 4.630289e-06 6.868632e-06 9.115519e-06
8.949141e-06 7.3707497e-06 5.5352693e-06 4.9556966e-06 3.4635646e-06 1.7612888e-06 1.2653067e-06 7.5364864e-07
7.0906495e-08 6.726141e-09 3.3059017e-11 0.0 0.0 0.0 5.325649e-09 1.1764271e-09
1.012819e-09 4.1432756e-08 4.1926674e-07 9.63615e-07 1.7603046e-06 2.6560715e-06 4.9752084e-06 7.073117e-06
9.813088e-06 1.32537125e-05 1.8296425e-05 2.0424219e-05 2.075796e-05 1.9339548e-05 1.5232218e-05 1.1283226e-05
7.637203e-06 5.130346e-06 2.8237193e-06 1.178053e-06 1.3471472e-07 1.4660075e-08 2.141961e-09 1.267268e-09
0.0 0.0 2.1480643e-12 2.4638572e-10 1.7257667e-08 2.9241522e-07 1.1281462e-06 2.1822157e-06
3.6248405e-06 6.8924314e-06 1.0051253e-05 1.3795796e-05 1.8155155e-05 2.2494702e-05 2.528001e-05 2.8341334e-05
2.9174653e-05 2.7567341e-05 2.4004656e-05 1.874808e-05 1.3259155e-05 8.577189e-06 5.3440936e-06 2.316033e-06
2.1899348e-07 5.855933e-08 1.7073562e-08 8.142179e-09 0.0 0.0 7.307658e-10 2.0856723e-09
1.1961616e-07 4.843121e-07 1.6148806e-06 3.1177938e-06 6.058779e-06 9.604432e-06 1.3547314e-05 1.9217678e-05
2.3675213e-05 2.5948626e-05 2.8030337e-05 2.8796552e-05 2.9634428e-05 2.9106084e-05 2.7508831e-05 2.34603e-05
1.7998356e-05 1.2499234e-05 8.382562e-06 4.1805697e-06 8.7895006e-07 2.1641611e-07 6.534313e-08 2.6964905e-10
0.0 0.0 2.337477e-10 2.176514e-09 5.949934e-08 6.0828324e-07 2.3529421e-06 5.2368296e-06
9.315739e-06 1.3243399e-05 1.7750195e-05 2.446734e-05 2.5854128e-05 2.6181506e-05 2.6494316e-05 2.6789085e-05
2.738914e-05 2.6618163e-05 2.5513878e-05 2.5066833e-05 2.1204429e-05 1.6181444e-05 9.933096e-06 5.259034e-06
1.2550851e-06 2.1346389e-07 7.2764967e-09 0.0 0.0 0.0 3.957253e-11 3.8566523e-09
00000000: 0000 0000 0000 0000 0000 0000 0000 0000
00000010: 0000 0000 0000 0000 0000 0000 0000 0000
00000020: 0000 0000 0000 0000 0000 0000 0000 0000
00000030: 0000 0000 0000 0000 0000 0000 0000 0000
00000040: 0000 0000 0000 0000 0000 0000 0000 0000
00000050: 0000 0000 0000 0000 0000 0000 0000 0000
00000060: 0000 0000 0000 0000 0000 0000 0000 0000
00000070: 0000 0000 0000 0000 0000 0000 0000 0000
00000080: 0000 0000 0000 0000 0000 0000 0000 0000
00000090: 0000 0000 0000 0000 0000 0000 0000 0000
000000a0: 0000 0000 4ecf 972e f1f5 e52f 6cc6 482d
000000b0: 76c1 1825 b7b7 9129 9d00 c229 fd41 0628
000000c0: 0000 0000 0000 0000 0000 0000 0000 0000
000000d0: 0000 0000 0000 0000 0000 0000 0000 0000
000000e0: 0000 0000 0000 0000 0000 0000 b35f 7a30
000000f0: b51e ee2e b7e0 ad27 8ecd a632 1415 5a33
00000100: 1ea9 e431 0488 8a31 e46c a52f 7755 8533
00000110: e851 c633 82c6 2333 040d 3434 dfe1 8332
00000120: f233 4f34 8b67 a634 27bc 6832 27c2 6130
00000130: 98b2 9f2e 53be fa2d 39a1 582c 22df 1f27
00000140: 0000 0000 0000 0000 0000 0000 0000 0000
00000150: 0000 0000 0000 0000 0000 0000 b073 0332
00000160: 2ea5 6b30 89d5 b232 8ac6 2c33 7a4e ca33
00000170: d889 3b34 b062 3c34 20d9 0635 332e 7a35
00000180: be2d 8635 f13a 8835 55a1 8635 6949 a635
00000190: 9697 1a36 ed9d dd35 33ff 8f35 66a2 4b35
000001a0: 2555 2135 5a05 0335 dd7e b534 4c67 d333
000001b0: e495 5633 ec49 2132 856e b22f 0000 0000
000001c0: 0000 0000 0000 0000 0000 0000 43d5 412f
000001d0: 228d f02e 4871 c332 e34f 6133 9c4c 8a34
000001e0: 25fa 2f35 f254 9335 80c3 0336 d37f 3936
000001f0: b7a9 6336 e15d 9b36 1a79 e636 dbee 1837
00000200: 4524 1637 4252 f736 9abb b936 1c49 a636
00000210: 966f 6836 6c65 ec35 9bd3 a935 574e 4a35
00000220: 4245 9833 c31b e731 2565 112e 0000 0000
00000230: 0000 0000 0000 0000 e7fc b631 d9af a130
00000240: 6733 8b30 ccf3 3133 9517 e134 8f55 8135
00000250: 9b43 ec35 f63e 3236 b7f0 a636 9d55 ed36
00000260: e4a2 2437 435c 5e37 467b 9937 ad54 ab37
00000270: 6121 ae37 5d3b a237 e18d 7f37 164d 3d37
00000280: 8a21 0037 5625 ac36 217f 3d36 981d 9e35
00000290: 1aa6 1034 b1db 7b32 c731 1331 072c ae30
000002a0: 0000 0000 0000 0000 1628 172c b573 872f
000002b0: 033e 9432 3efd 9c34 cf6a 9735 2e72 1236
000002c0: 4942 7336 8945 e736 cea1 2837 7e74 6737
000002d0: e64b 9837 01b3 bc37 6810 d437 8dbe ed37
000002e0: 17bc f437 6a40 e737 9b5d c937 3245 9d37
000002f0: a373 5e37 bfe6 0f37 6a51 b336 256d 1b36
00000300: 7824 6b34 aa82 7b33 29a9 9232 afe1 0b32
00000310: 0000 0000 0000 0000 12df 4830 8953 0f31
00000320: d76f 0034 ad01 0235 e0be d835 4a3b 5136
00000330: 844c cb36 b922 2137 4549 6337 a635 a137
00000340: 229a c637 40ac d937 b122 eb37 2090 f137
00000350: 7397 f837 d728 f437 c4c2 e637 9ccc c437
00000360: 2dfb 9637 cdb3 5137 d4a2 0c37 d246 8c36
00000370: fdf0 6b35 0260 6834 c452 8c33 bb3d 942f
00000380: 0000 0000 0000 0000 1081 802f a491 1531
00000390: 378c 7f33 e848 2335 3de7 1d36 06b8 af36
000003a0: cb4a 1c37 f72f 5e37 41e6 9437 363f cd37
000003b0: 51e1 d837 5ba0 db37 1c40 de37 1fb9 e037
000003c0: bbc1 e537 124a df37 a306 d637 9d46 d237
000003d0: 2ae0 b137 63bd 8737 53a6 2637 c276 b036
000003e0: 6574 a835 8234 6534 be04 fa31 0000 0000
000003f0: 0000 0000 0000 0000 b50a 2e2e 7983 8431

exp_avg f4 [10]
0.0030024124 -0.0007889113 6e-45 -0.00222789 -3.579457e-05 6e-45 0.00076592393 6e-45
6e-45 -0.0063511524
00000000: 1fc4 443b f1ce 4eba 0400 0000 cb01 12bb
00000010: 2022 16b8 0400 0000 49c8 483a 0400 0000
00000020: 0400 0000 541d d0bb

exp_avg_sq f4 [10]
6.3944535e-05 6.197341e-05 3.83177e-11 0.000139918 0.0002059036 6.611704e-08 8.676521e-05 1.5371711e-07
3.8878994e-08 0.00031386278
00000000: f619 8638 b9f7 8138 e585 282e f4b6 1239
00000010: d4e7 5739 3afc 8d33 b8f5 b538 700d 2534
00000020: e8fb 2633 f38d a439
