pytorchlightningimplementation/lightning_logs/version_2/checkpoints/epoch=2-step=2814.ckpt (torch, 99324 bytes, 6 tensors)

l1.weight f4 [10, 784]
00000000: 6070 cc3b 6098 baba c01c fd3a 30dc 233c
00000010: 1243 ef3c f51f c9bc eae8 94bc 1c72 e7bb
00000020: 948d 1d3c f0d0 66bb 18ee edbc f2f3 943c
00000030: d0b1 89bb 7701 07bd 9818 193c 55c1 0a3d
00000040: 40ac f73a d255 53bc b526 f6bc e3af 0d3d
00000050: 90bb 2a3c 4079 f03b 8e48 88bc ee0f 14bc
00000060: 6330 d9bc 7a5f da3c be38 e73c f233 e53c
00000070: e0ec 3fbb 8665 e43c b829 903c 668b 4cbc
00000080: b8b8 79bc 98e6 793c fea6 97bc a896 913c
00000090: 2789 02bd 073f 013d c07b 773a 869e 53bc
000000a0: c2d8 ab3c 4e68 e6bd fc10 dcbd d81e 33be
000000b0: 480c e2bd 0188 2cbe d1d8 48be 034e 4ebe
000000c0: a226 12be b89c fcbd ba32 84bc 16ea d33c
000000d0: b577 e9bc 088f 723c 8675 56bc 2afb a73c
000000e0: 0097 8f3a a497 433c eaa5 b2bc fc92 7e3f
000000f0: fa30 843f 6dd5 04be 4b20 59bf 8f6f 8a3f
00000100: ab66 ffbe 2951 d5bf ab58 83bf c627 03c0
00000110: 03a3 08c0 43b1 a4bf 0bd6 fdbf 5fd6 3ac0
00000120: a0ab d0bf 70d3 13c0 2b18 e7bf 751b 43bf
00000130: e6a6 8bbf ddfe 74bf 19a7 d0be f045 8dbf
00000140: 7738 a0bd 302e 53bb d286 fb3c 30ba 263b
00000150: 652a d3bc 0e64 64bc 4d13 0b3d 7b7b 503f
00000160: 47d5 213c 26af 89bf 4f9b cebf 80bd b6be
00000170: 5567 96bf 6921 31c0 fe32 84bf 3541 4dbf
00000180: 1f2e ddbf b42b 4bbf f261 acbe d370 12be
00000190: e1b4 293e 777c 9dbe 3436 5bbf 1850 ebbe
000001a0: 4094 523e 6174 5abf e85b dcbf 9250 3fbf
000001b0: 71df 8fbf dfd9 f5be a848 1cbf ca8c f43c
000001c0: d06e 93bc b899 19bc 4b5a 043d f811 afbe
000001d0: 72c8 3bbf 9c21 f1bf d165 74bf c606 233f
000001e0: 74ac e13e eac4 44bd 7401 bf3d 7faa 8e3c
000001f0: 9e5d 8dbf 5cf7 283e 3ec2 87be 2c63 b2be
00000200: 7b3c 3bbf 20b9 9f3c bcaa 1cbd 869b 8ebd
00000210: d382 79be 92c5 d9be 13a4 923e c1f3 b13d
00000220: 2e4e e0bf 6d19 27c0 c840 63bf 6ab2 66bc
00000230: 9436 883c 7878 f3bb 7d91 83bf 7173 25bf
00000240: b638 6fbf 704f ffbf 0f85 2dbf d28d b9be
00000250: 4d62 633e d9c7 92be cf7a 1b3e cbdf 9ebe
00000260: bf98 453c e5d3 d73e ee79 0a3f 5e8b b73d
00000270: 4afe a63d c9eb dc3e 1b81 a53e 3823 e3bd
00000280: e387 47be 52cc f1be bf65 c03e 3b84 04bf
00000290: 0ef4 9fbf a10f e1bf 993e 02c0 6f63 d0be
000002a0: 1e91 f23c 3049 5c3b b48e 7abf a2df fcbe
000002b0: 77ca cdbf 8aef 8fbf 478f 23bf 1e59 63be
000002c0: fa44 3abf 7108 81bf 662a 89be d12a 35be
000002d0: 0205 35be 9134 ce3d 2c49 783d a8d3 a73e
000002e0: 1a4e 68bd 9206 bb3d ce4f 523e c657 04bd
000002f0: a970 99be c077 433f 7e22 103f db63 c7be
00000300: 98b3 bbbf 92f0 36c0 9907 0fc0 e187 dabd
00000310: 64f1 3f3c 4a6d fa3c a43e 80bf 43f9 91bf
00000320: a0c8 1ec0 9756 8a3d 5503 9d3e 1c3f 073f
00000330: ad18 6bbf e669 1bbe a4a4 43be be45 073e
00000340: feff 4a3d d137 d73e cc1d 2e3e 3262 8b3e
00000350: 4495 9c3e ba09 1f3f ca3e 5b3f 961e 193f
00000360: a2c6 8d3e c049 063f fe31 8cbe 957f 07bf
00000370: 7778 28bf 58e6 19c0 62b4 48c0 d3d1 54bd
00000380: 9e8e 88bc beb9 f13c 56f4 573e bbd5 ddbe
00000390: 1db9 d6bf 7d96 b63d 6987 293f 3650 153e
000003a0: fefd b6be 578a 073c aeba 323e 636b 9fbe
000003b0: 9f91 c73e 2b5f 923e 6947 1f3f 044c 143f
000003c0: 2306 8c3f 9514 603f 7c11 b23e a8f6 153e
000003d0: e2b9 793e 0b22 493d 3f1a 18bd 6f34 b83e
000003e0: e71a 17bf 19d9 1ac0 807d 19c0 093b 62be
000003f0: 1c45 febc 4303 afbc d165 1b3d 36a3 27be
0.006238982 -0.0014236085 0.0019310936 0.010001227 0.029206786 -0.024551371 -0.018177468 -0.0070631634
0.009616274 -0.0035219751 -0.029044196 0.018182728 -0.004202105 -0.03296038 0.0093442425 0.033875782
0.0018895939 -0.012898879 -0.030047754 0.034591567 0.010420695 0.007338673 -0.01663616 -0.009037001
-0.02651233 0.026656855 0.028225299 0.027978871 -0.0029285476 0.027880441 0.017598018 -0.012484407
-0.015241794 0.015252732 -0.018512245 0.017772034 -0.03186908 0.03155425 0.00094407424 -0.012916213
0.020977382 -0.11250363 -0.10745427 -0.17492235 -0.11037499 -0.16848756 -0.19613959 -0.20146947
-0.1427255 -0.12334579 -0.01613747 0.025868457 -0.028499464 0.014804609 -0.013089543 0.020505507
0.0010955036 0.011938009 -0.02180763 0.9944303 1.0327446 -0.1297204 -0.848149 1.0815295
-0.49883017 -1.6665393 -1.0261434 -2.0493026 -2.1349494 -1.2866596 -1.9830946 -2.9193342
-1.6302376 -2.3097801 -1.805425 -0.7621377 -1.0910308 -0.9570139 -0.40752485 -1.1036968
-0.0782327 -0.0032223575 0.030703936 0.0025440566 -0.025777051 -0.0139398705 0.033953954 0.81438416
0.009877509 -1.0756576 -1.6141146 -0.35691452 -1.1750284 -2.7676642 -1.0328062 -0.80177623
-1.72797 -0.7936356 -0.33668476 -0.14300852 0.16572906 -0.30759022 -0.8562958 -0.45959544
0.20564365 -0.8533383 -1.7215548 -0.74732316 -1.1240064 -0.48017785 -0.61048365 0.02985229
-0.017997175 -0.009375028 0.032312673 -0.34193397 -0.7335273 -1.8838382 -0.9546786 0.6368221
0.44076884 -0.048039354 0.09326449 0.017415283 -1.1044195 0.1650061 -0.26515383 -0.34841287
-0.7313916 0.019497454 -0.038248762 -0.069632575 -0.24366312 -0.42533547 0.28640804 0.086890705
-1.7523859 -2.6109269 -0.88770723 -0.014080623 0.016627587 -0.0074301325 -1.0278774 -0.64629275
-0.9344591 -1.9946117 -0.67781156 -0.36241013 0.22205468 -0.28668097 0.15183567 -0.31030115
0.012060343 0.4215385 0.540923 0.08962129 0.081539705 0.4314864 0.32325062 -0.11090702
-0.1948543 -0.47226197 0.37577626 -0.5176427 -1.2496355 -1.7582895 -2.0350707 -0.40700862
0.029610213 0.003361296 -0.97874 -0.49389368 -1.6077412 -1.1244977 -0.638905 -0.22201964
-0.727615 -1.0080701 -0.2679016 -0.17692114 -0.17677692 0.1006862 0.060616657 0.32778668
-0.05671511 0.091321126 0.20538256 -0.03231027 -0.29968765 0.763546 0.5630263 -0.3894337
-1.4664183 -2.8584332 -2.2348387 -0.10670448 0.011715267 0.030569691 -1.0019116 -1.1404194
-2.4809952 0.06754797 0.30666605 0.5283067 -0.9183453 -0.15177116 -0.19105774 0.13210198
0.04956054 0.42034772 0.17003554 0.27223355 0.3058263 0.62124217 0.85642684 0.59812295
0.27690607 0.52456284 -0.2738189 -0.5292905 -0.65808815 -2.404684 -3.1360097 -0.051957916
-0.016669568 0.029507514 0.210893 -0.43327126 -1.6775242 0.08915422 0.66222245 0.1458138
-0.35740656 0.008272729 0.17454025 -0.31136617 0.38978288 0.28588232 0.6221834 0.5792849
1.0939373 0.87531406 0.34778965 0.14644873 0.24387315 0.04910473 -0.037134405 0.35977504
-0.59025425 -2.4195006 -2.398285 -0.22092833 -0.031038813 -0.02136386 0.037938897 -0.16370854

l1.bias f4 [10]
00000000: 5389 99bf 989e 313e c857 0c3f 1581 73bf
00000010: 95b2 223e 41d1 4140 13bc 39be d064 f9bd
00000020: 40fa 14c0 836c 72bf
-1.1995033 0.17345655 0.54821444 -0.9511884 0.15888436 3.0283968 -0.18138151 -0.121774316
-2.327774 -0.94696826

exp_avg f4 [10, 784]
00000000: 0000 0000 0000 0000 0000 0000 0000 0000
00000010: 0000 0000 0000 0000 0000 0000 0000 0000
00000020: 0000 0000 0000 0000 0000 0000 0000 0000
00000030: 0000 0000 0000 0000 0000 0000 0000 0000
00000040: 0000 0000 0000 0000 0000 0000 0000 0000
00000050: 0000 0000 0000 0000 0000 0000 0000 0000
00000060: 0000 0000 0000 0000 0000 0000 0000 0000
00000070: 0000 0000 0000 0000 0000 0000 0000 0000
00000080: 0000 0000 0000 0000 0000 0000 0000 0000
00000090: 0000 0000 0000 0000 0000 0000 0000 0000
000000a0: 0000 0000 0400 0000 0400 0000 0400 0000
000000b0: 0400 0000 0400 0000 0400 0000 0400 0000
000000c0: 0400 0000 0400 0000 0000 0000 0000 0000
000000d0: 0000 0000 0000 0000 0000 0000 0000 0000
000000e0: 0000 0000 0000 0000 0000 0000 077f 8b33
000000f0: 8a93 809f 866c 701e bbfe 8a21 2a64 3322
00000100: 0eaf dd21 cd61 bc0f e4dd 8719 eb80 071d
00000110: c040 281d c037 9534 cc6c f836 9b16 fc36
00000120: 6cbf 7637 2017 b237 728a 8c36 4ac8 e431
00000130: 6368 0433 bac0 4432 4050 132a 6339 bf29
00000140: 0400 0000 0000 0000 0000 0000 0000 0000
00000150: 0000 0000 0000 0000 0000 0000 e678 0735
00000160: 0b12 ec34 c4a0 2f9f 0d30 6822 657c 44a8
00000170: bfa0 2935 b0ff c135 28a3 31b2 3468 1238
00000180: 3b32 8538 dd8b ca38 4d52 0239 d447 b3b7
00000190: 94b3 bbb7 5b40 8637 f156 a9b5 9b6e 9bb6
000001a0: 23a2 edb6 4357 a4b7 ef13 74b7 237e ab2f
000001b0: d496 882e cabc 9223 4d6f 9022 0000 0000
000001c0: 0000 0000 0000 0000 0000 0000 8fa8 aa2f
000001d0: 4a75 862f 2fe3 c929 8f3f 3532 5522 c634
000001e0: 94d5 5fb5 df4b 9ab7 c609 b2b8 cd4e 7db9
000001f0: 8d9b cbb8 396d 11b9 6f6e dfb6 6825 a037
00000200: aedd 5db7 8d7e 5d38 6f6e 1038 cbc8 22b8
00000210: 6fa5 4fb7 6359 a6b7 c6e6 04ba ab37 25ba
00000220: ec65 8b31 532b 1b30 8c62 b821 0000 0000
00000230: 0000 0000 0000 0000 2fd8 1d2c 91c9 5b30
00000240: 36ae 2d30 1d54 ea31 f695 e532 7ff5 0f37
00000250: 7467 b5b7 af25 95b9 d368 92b9 22e2 76b9
00000260: 6bc9 a0b7 d8e3 2e38 d4b0 95b7 455f b2b9
00000270: a155 feb9 62c3 a7b9 fcd8 1aba 9dd0 ffb9
00000280: 36c3 37b9 3810 a739 3570 6039 943a 74b8
00000290: dcd7 df32 6367 7a36 26da 8c36 446c fa08
000002a0: 0000 0000 0000 0000 0238 7015 0400 0000
000002b0: 745a 4f36 5e17 5d37 8309 c437 1302 e137
000002c0: e905 1738 48d2 21b8 7a17 36b9 aa3f b837
000002d0: 21fa 3f39 1c5c 8037 b8c5 6db9 e96e 58b9
000002e0: a0c2 8c38 a80e dc38 2471 67b9 4a15 05ba
000002f0: 2ca7 1838 42a9 da38 a40b a039 1055 9639
00000300: 9f7a 7638 1ab6 7d38 b800 8537 cce8 d68e
00000310: 0000 0000 0000 0000 0400 0000 24cb a104
00000320: 365f a137 3df6 be37 5eec 8937 fa5a a7b7
00000330: 64c4 53b8 ca78 89b9 2a77 19b8 9de7 0639
00000340: 761f 3739 d8e8 9936 2ceb 0c39 785e 18b8
00000350: 2292 70b9 9981 cab9 98a3 0cb8 2a35 a5b9
00000360: 1c3e 0eb9 a027 3a39 05e9 8439 2a2f 033a
00000370: c613 6a39 a7e8 9337 470f 2336 0bd5 628f
00000380: 0000 0000 0000 0000 8136 58b7 3a48 82b7
00000390: 0b4a 8837 587f 8136 3df1 1936 315a 97b9
000003a0: d0dc 6fb9 0421 81b9 c8dd c6b8 b1ca b339
000003b0: ada6 093a c2b7 d739 db0d 0039 e31a b9b9
000003c0: 27d9 b7b9 0e91 19b9 063f dd39 9499 9cb8
000003d0: 8be4 d7b9 30b9 3eba 9eef c4b9 9035 a837
000003e0: ceec b438 1ba2 b936 dfe1 fd20 0400 0000
000003f0: 0000 0000 0000 0000 cc67 b1b6 bec1 ddb6
0.0 0.0 0.0 0.0 0.0 0.0 0.0 0.0
0.0 0.0 0.0 0.0 0.0 0.0 0.0 0.0
0.0 0.0 0.0 0.0 0.0 0.0 0.0 0.0
0.0 0.0 0.0 0.0 0.0 0.0 0.0 0.0
0.0 0.0 0.0 0.0 0.0 0.0 0.0 0.0
0.0 6e-45 6e-45 6e-45 6e-45 6e-45 6e-45 6e-45
6e-45 6e-45 0.0 0.0 0.0 0.0 0.0 0.0
0.0 0.0 0.0 6.495798e-08 -5.445419e-20 1.2727936e-20 9.41867e-19 2.431205e-18
1.5021879e-18 1.8575903e-29 1.4048294e-23 1.793375e-21 2.226809e-21 2.7793976e-07 7.4036416e-06 7.512817e-06
1.47073115e-05 2.1230022e-05 4.1884423e-06 6.6584436e-09 3.0828584e-08 1.14525225e-08 1.3084065e-13 8.492059e-14
6e-45 0.0 0.0 0.0 0.0 0.0 0.0 5.046735e-07
4.3971554e-07 -3.7190674e-20 3.14673e-18 -1.0907159e-14 6.319132e-07 1.4454035e-06 -1.0339853e-08 3.490616e-05
6.35129e-05 9.658162e-05 0.00012428426 -2.137191e-05 -2.237576e-05 1.6004013e-05 -1.2616784e-06 -4.632236e-06
-7.0820256e-06 -1.9590958e-05 -1.45481745e-05 3.1194344e-10 6.2113564e-11 1.5909307e-17 3.9149122e-18 0.0
0.0 0.0 0.0 3.1042588e-10 2.4457797e-10 8.965603e-14 1.0550038e-08 3.6905354e-07
-8.338477e-07 -1.839356e-05 -8.489522e-05 -0.00024157316 -9.708768e-05 -0.00013868966 -6.658774e-06 1.9090905e-05
-1.322424e-05 5.2808366e-05 3.4435125e-05 -3.8810813e-05 -1.23766795e-05 -1.9830366e-05 -0.00050697883 -0.00063025457
4.0570196e-09 5.645024e-10 1.249441e-18 0.0 0.0 0.0 2.2431048e-12 7.995818e-10
6.31846e-10 6.819859e-09 2.6727303e-08 8.580623e-06 -2.1625056e-05 -0.0002844757 -0.0002792539 -0.00023544629
-1.9167279e-05 4.169703e-05 -1.7844526e-05 -0.00034021787 -0.00048510454 -0.00031998294 -0.0005906967 -0.0004879282
-0.00017524962 0.00031864806 0.00021404105 -5.822869e-05 2.6058778e-08 3.7313082e-06 4.197721e-06 1.5071781e-33
0.0 0.0 4.8511796e-26 6e-45 3.0898054e-06 1.3178067e-05 2.336945e-05 2.6823056e-05
3.600671e-05 -3.858123e-05 -0.00017365618 2.1964155e-05 0.0001830836 1.530168e-05 -0.00022675737 -0.00020640682
6.711972e-05 0.000104931474 -0.00022072025 -0.00050767197 3.6395315e-05 0.00010426577 0.0003052625 0.00028673606
5.876517e-05 6.0489496e-05 1.585517e-05 -5.297925e-30 0.0 0.0 6e-45 3.8037473e-36
1.9237032e-05 2.2764429e-05 1.644174e-05 -1.9950316e-05 -5.0489223e-05 -0.0002622067 -3.6589023e-05 0.00012865519
0.0001746396 4.586862e-06 0.00013439049 -3.6327605e-05 -0.00022942622 -0.00038625 -3.353096e-05 -0.00031510863
-0.00013565313 0.00017753104 0.00025350615 0.00050042814 0.00022323345 1.7632103e-05 2.4297785e-06 -1.1183691e-29
0.0 0.0 -1.2887293e-05 -1.553084e-05 1.6246942e-05 3.8593244e-06 2.2939196e-06 -0.00028868162
-0.00022875075 -0.00024629396 -9.482686e-05 0.00034292557 0.0005250972 0.00041144906 0.00012212193 -0.00035305982
-0.0003506627 -0.00014645254 0.0004219936 -7.467266e-05 -0.00041178273 -0.000727552 -0.00037562562 2.0052103e-05
8.627177e-05 5.532301e-06 4.3009336e-19 6e-45 0.0 0.0 -5.2870946e-06 -6.608868e-06

exp_avg_sq f4 [10, 784]
00000000: 0000 0000 0000 0000 0000 0000 0000 0000
00000010: 0000 0000 0000 0000 0000 0000 0000 0000
00000020: 0000 0000 0000 0000 0000 0000 0000 0000
00000030: 0000 0000 0000 0000 0000 0000 0000 0000
00000040: 0000 0000 0000 0000 0000 0000 0000 0000
00000050: 0000 0000 0000 0000 0000 0000 0000 0000
00000060: 0000 0000 0000 0000 0000 0000 0000 0000
00000070: 0000 0000 0000 0000 0000 0000 0000 0000
00000080: 0000 0000 0000 0000 0000 0000 0000 0000
00000090: 0000 0000 0000 0000 0000 0000 0000 0000
000000a0: 0000 0000 ab09 e22e 3433 2b30 5a1a b62d
000000b0: 66a5 e82c b0bf f12a dff8 9a28 27bc 8c28
000000c0: 0b47 4b2a c290 4728 0000 0000 0000 0000
000000d0: 0000 0000 0000 0000 0000 0000 0000 0000
000000e0: 0000 0000 0000 0000 0000 0000 e940 1b30
000000f0: 61a6 932e d6eb 3821 463f 7727 c4d2 5a33
00000100: 4bfc 0032 2559 9231 41e2 6831 09a4 6333
00000110: 9c66 a633 7ef0 8b33 ddc4 6b34 b626 1732
00000120: 745f f733 d1ae 7634 6697 9332 770f 7d31
00000130: 041b 9d2f 6ccd 012e 4453 bd2b a9c6 7b27
00000140: e8ab 1421 0000 0000 0000 0000 0000 0000
00000150: 0000 0000 0000 0000 0000 0000 7e20 a331
00000160: c505 8130 75ea 1d34 6cde 1c34 074d 7734
00000170: e937 4d34 70bd b934 4151 5c35 75be b635
00000180: ee0f bb35 921e bc35 c5a2 f435 4e10 da35
00000190: 6e8a 1736 3496 0f36 0b5c e335 fde1 9035
000001a0: 2f55 8235 d4e1 5135 1dcb d534 ba9b ee32
000001b0: 32c9 f230 28c2 3c31 6222 302f 0000 0000
000001c0: 0000 0000 0000 0000 0000 0000 f735 d12c
000001d0: 3853 4d2e afa9 1d34 a247 5d34 5bac 2335
000001e0: 78ae aa35 98dc 1936 9e18 5e36 4b7c 7936
000001f0: 6f98 8f36 29d1 ae36 ff00 e536 859d 0f37
00000200: 3c98 2837 54f4 2037 596c 0337 40c9 e136
00000210: 0bd3 9336 0620 2b36 eafa e035 6bf6 6635
00000220: cced 9434 5ae4 5333 e985 8f2d 0000 0000
00000230: 0000 0000 0000 0000 0519 0c2c 8849 a130
00000240: 87e5 be31 ba47 8434 14bf 9135 a75a fd35
00000250: 32cd 5236 79e7 9836 af2a e136 fe98 2137
00000260: b590 5737 f26f 8d37 a266 b537 5cc6 c437
00000270: baab c237 107b cc37 005d b237 6094 8d37
00000280: 9571 4637 7309 f136 dead 7e36 950e ce35
00000290: 14c9 ce34 808a a431 36fa 8030 f5b3 2d2c
000002a0: 0000 0000 0000 0000 79b5 e02a b5aa 0331
000002b0: 5625 a332 599f 2835 e472 0736 b576 4f36
000002c0: 9750 ad36 7177 1037 f1ce 4b37 3b55 8937
000002d0: 5131 b437 6520 e637 2504 0638 7573 1438
000002e0: 6f79 1438 7c41 0c38 89b4 fa37 ce49 cd37
000002f0: 980c 9737 bd7d 4f37 72bd f636 5bad 2e36
00000300: 7b6a 2235 9c6b 5a34 9e30 7932 47b4 432e
00000310: 0000 0000 0000 0000 b94e 152f 5a76 1631
00000320: bb65 6b33 0c69 6f35 375b 3536 d9b0 a436
00000330: a744 0837 b068 5437 d5d0 8f37 db95 be37
00000340: 1161 ee37 b24b 0638 3743 1738 e0b1 1538
00000350: 6982 1538 90a8 0f38 e3dd 0238 958d e437
00000360: 9e78 be37 566b 8d37 42be 3a37 9901 a436
00000370: f2c8 8135 3898 5c34 e929 1134 ba64 422f
00000380: 0000 0000 0000 0000 4b3d be2e 29a8 9132
00000390: 1cdf 2b34 6e42 9a35 0375 8336 04ee ec36
000003a0: f94a 4337 f72d 8837 0ec7 af37 0e73 e437
000003b0: 35b2 f537 b5af 0638 a921 0738 185a 0638
000003c0: 3623 0638 2004 0338 4e42 f937 734d ec37
000003d0: af3f cd37 9c04 a737 d58a 6237 9611 d536
000003e0: a0b3 b035 0120 1734 ad08 4b33 3863 a72e
000003f0: 0000 0000 0000 0000 27ff c22d d35d bb33
0.0 0.0 0.0 0.0 0.0 0.0 0.0 0.0
0.0 0.0 0.0 0.0 0.0 0.0 0.0 0.0
0.0 0.0 0.0 0.0 0.0 0.0 0.0 0.0
0.0 0.0 0.0 0.0 0.0 0.0 0.0 0.0
0.0 0.0 0.0 0.0 0.0 0.0 0.0 0.0
0.0 1.02790075e-10 6.22822e-10 2.0702707e-11 6.6121995e-12 4.294321e-13 1.7205365e-14 1.562472e-14
1.805467e-13 1.10781084e-14 0.0 0.0 0.0 0.0 0.0 0.0
0.0 0.0 0.0 5.6480914e-10 6.714341e-11 6.265375e-19 3.4312436e-15 5.094877e-08
7.507945e-09 4.259294e-09 3.3889054e-09 5.3001745e-08 7.748642e-08 6.516437e-08 2.1957699e-07 8.798159e-09
1.15191966e-07 2.2974133e-07 1.71819e-08 3.6825136e-09 2.857733e-10 2.9513655e-11 1.3452369e-12 3.4940941e-15
5.0371867e-19 0.0 0.0 0.0 0.0 0.0 0.0 4.7476183e-09
9.387625e-10 1.470706e-07 1.4609549e-07 2.303169e-07 1.9112453e-07 3.459677e-07 8.2074627e-07 1.3615487e-06
1.3937222e-06 1.4015989e-06 1.8226789e-06 1.6247011e-06 2.258133e-06 2.139609e-06 1.6939606e-06 1.0794607e-06
9.710546e-07 7.818719e-07 3.9822126e-07 2.7777663e-08 1.7665001e-09 2.7467966e-09 1.6019322e-10 0.0
0.0 0.0 0.0 5.9461286e-12 4.6685517e-11 1.4683495e-07 2.0608289e-07 6.097304e-07
1.2716764e-06 2.292718e-06 3.3094907e-06 3.717624e-06 4.2794777e-06 5.2099535e-06 6.824848e-06 8.56014e-06
1.0049025e-05 9.59363e-06 7.833435e-06 6.728951e-06 4.40551e-06 2.5499626e-06 1.6762326e-06 8.604026e-07
2.7740168e-07 4.933495e-08 1.6316686e-11 0.0 0.0 0.0 1.9909085e-12 1.1735191e-09
5.555822e-09 2.4639104e-07 1.0858953e-06 1.8876352e-06 3.1411878e-06 4.5569e-06 6.7104916e-06 9.631969e-06
1.2848691e-05 1.6860638e-05 2.1624674e-05 2.3457389e-05 2.3206569e-05 2.4376e-05 2.126256e-05 1.6877602e-05
1.1828165e-05 7.1834597e-06 3.7950153e-06 1.535244e-06 3.8516794e-07 4.788774e-09 9.38434e-10 2.4684675e-12
0.0 0.0 3.9916315e-13 1.9160045e-09 1.8992676e-08 6.281676e-07 2.0183443e-06 3.09145e-06
5.1651837e-06 8.6108785e-06 1.2147925e-05 1.6371361e-05 2.1480637e-05 2.7433221e-05 3.195195e-05 3.5393477e-05
3.5399044e-05 3.3439588e-05 2.988639e-05 2.4472272e-05 1.8006467e-05 1.2367437e-05 7.3534256e-06 2.6028927e-06
6.050465e-07 2.034198e-07 1.4504762e-08 4.4497985e-11 0.0 0.0 1.3579439e-10 2.1895148e-09
5.4807725e-08 8.91873e-07 2.7024196e-06 4.9081686e-06 8.122216e-06 1.2660559e-05 1.7144173e-05 2.2719547e-05
2.8417011e-05 3.2018586e-05 3.6063804e-05 3.5690027e-05 3.5645822e-05 3.4250843e-05 3.1201063e-05 2.7245647e-05
2.2705932e-05 1.6858492e-05 1.1130762e-05 4.887767e-06 9.669732e-07 2.0544474e-07 1.3519424e-07 1.7679982e-10
0.0 0.0 8.6510875e-11 1.6956692e-08 1.6006783e-07 1.1493228e-06 3.917726e-06 7.0610567e-06
1.1640362e-05 1.6233867e-05 2.0954318e-05 2.7233295e-05 2.928926e-05 3.211173e-05 3.2217857e-05 3.2031996e-05
3.1980882e-05 3.1236676e-05 2.9713989e-05 2.8169457e-05 2.446756e-05 1.9910098e-05 1.3502974e-05 6.349942e-06
1.31653e-06 1.4074614e-07 4.727251e-08 7.6119056e-11 0.0 0.0 2.2168557e-11 8.7249326e-08

exp_avg f4 [10]
00000000: 786c 49b9 7437 83bb 8eec 8aba 490c f1ba
00000010: d80a 89b9 0ba9 cc3b 6188 fd3a 0400 0000
00000020: 3c36 c83b 58eb 33bc
-0.00019209262 -0.0040044133 -0.0010599063 -0.0018390502 -0.00026138755 0.0062457374 0.0019343012 6e-45
0.006109981 -0.010981403

exp_avg_sq f4 [10]
00000000: ae9b 9438 9f63 c038 ebe8 2b39 fcda 7939
00000010: b982 6139 f896 8339 8d78 0239 ff62 b133
00000020: f3a1 e339 900a b239
7.0861875e-05 9.173829e-05 0.000163946 0.00023828069 0.0002150637 0.00025098748 0.00012442675 8.260212e-08
0.00043417476 0.00033958675
