pytorchlightningimplementation/lightning_logs/version_0/checkpoints/epoch=2-step=2814.ckpt (torch, 99324 bytes, 6 tensors)

l1.weight f4 [10, 784]
00000000: 3251 cf3c 1863 ae3b 189d b63c 2e6c de3c
00000010: c474 313c 0095 ccbc cea1 f53c 75e8 08bd
00000020: 4597 acbc 607b ff3b 4a94 2fbc 5807 ebbc
00000030: 98bd 7ebc c082 45bc bc55 063c 2805 ad3b
00000040: 8ae3 18bc 157e 0f3d 141f 06bd 0010 2bbb
00000050: 5022 54bb 963c 0cbd 63bd b2bc aa72 b1bc
00000060: 8ac7 f3bc c587 8ebc 0866 edbb d540 0b3d
00000070: 8853 b03b f065 82bc 64aa 4b3c c09a b9bb
00000080: 5a76 f23c 90b9 5d3c 1c08 d03c 3514 003d
00000090: bde4 073d e8af a6bc bf1f d6be 9def c7be
000000a0: 6427 ddbe 1b78 90bd 67cc a4bd 94cb 03be
000000b0: 591c 12be 539b 40be e0cc 4dbe 5ea3 68be
000000c0: 7ce6 363c 813e eebc b556 ebbc f809 d3bb
000000d0: 963a f13c f038 5d3b 26e3 53bc 625b d23c
000000e0: 607f 48bb f27b 893c c8c3 dd3b 7bb9 753f
000000f0: 7c0c b03f 44ab d43c 956b 7abf 656b dcbd
00000100: 57d4 8bbf 5359 9bbf 1c90 b2bf d6d3 f6bf
00000110: 5882 16c0 226e babf 68e5 e5bf e60c 19c0
00000120: 3722 b5bf 6e02 14c0 f3c4 e4bf 2829 89bf
00000130: dc9b 7fbf c270 2fbf a832 57be 2eed 33be
00000140: beeb fc3c bcd4 77bc 1c4d 8dbc fc03 a4bc
00000150: e5a0 04bd 4855 dcbc 2ec7 22bc b5ec 2c3f
00000160: bb2b a5be 8732 5bbf 61bc 14c0 f3fb 98bf
00000170: 2c7f e6bf e1a5 21c0 6745 fdbe b05d 81bf
00000180: 8b16 a2bf 23d3 7fbe 62be a43e adc3 a93e
00000190: 82a9 0b3f 85a5 14be 71dd 64bf a453 48be
000001a0: 7270 7dbe 7fb9 a5bf 2647 f0bf 7257 a0be
000001b0: 0c12 a83e 5a4f a6be c22a 99bf 520c e73c
000001c0: 2006 7dbb 2a76 b03c 9860 e9bc 6bd3 fabe
000001d0: c428 a3bf 3ca3 12c0 35eb c8bf 5695 2d3e
000001e0: 1931 213f 01d1 163f e7ef b13e b5b0 403e
000001f0: 5170 21bf 1d2f d13e d042 93bd c275 6cbe
00000200: 2d88 92be c533 adbd 94dd f63d c1d2 76be
00000210: 3406 04bf d8fa 00bf fa1c 33be 74cf d8be
00000220: 0f9a dcbf 5282 aebf 99d3 9cbf 0056 9c3b
00000230: b043 7b3b b0b0 363c 15c1 8cbf 76da 8fbf
00000240: e8fb c9bf 8414 0cc0 c64e 2bbf ce89 43bf
00000250: c69c 063d ffb9 11be 20fd 323e 04e7 8cbd
00000260: a912 8bbe 5e58 0c3e beef 983e 8326 94bd
00000270: e373 023e c3c3 6cbc fa0e 063e 047c bebe
00000280: 10b0 34bf d073 09bf 6a80 60bc c0c7 4fbf
00000290: 4fb4 01c0 6f15 eebf 3588 5abf 4657 b9be
000002a0: 4441 01bc e037 f43a 8b7c 15bf b5be ccbe
000002b0: ab9a a4bf 4f76 35bf f1ea 58be 8554 c6be
000002c0: 7fbe 03bf c5bf 84bf b8a0 d5be 7c21 84be
000002d0: 14c3 15bc 751d 813e 56ee 1a3e 8295 423e
000002e0: 002f edb7 2cfd 193e c7a6 cd3e dc28 863d
000002f0: 404a a2be 0592 b03e a108 1d3f 1470 23bf
00000300: c3f7 27c0 f389 3cc0 0495 14c0 d786 70bf
00000310: 5409 b8bb 9876 e5bc 7d19 2ebf df51 a7bf
00000320: 6bcb 02c0 66aa 433f 4ba3 283f 50b0 ad3e
00000330: c067 2dbf 0031 973d 5116 1f3e 9c46 c53e
00000340: 44d0 a13e e286 ca3e a1d6 0e3d 5e20 253e
00000350: 1aa6 e43e 1516 103f 1760 0c3f 262c f63e
00000360: c62c 323e 88c5 59bd efe7 27be 2d98 d6be
00000370: ce17 1ec0 d676 38c0 86ac 19c0 0b81 473d
00000380: 7cdc d23c bc12 61bc c96f 983e 56ae 9fbe
00000390: 52b5 cabf 0862 383f 3cab 893f fece 0c3f
000003a0: 7ef4 793d 35c3 cc3e b644 7d3e 07d7 a4be
000003b0: 39a0 ce3e c31e 623e 1561 233f 0f36 fe3e
000003c0: 948d 8e3f 10e8 633f a6a5 203f 37cf 6f3d
000003d0: ca49 903e 1ff3 453e 9ec3 4a3e 5c04 583e
000003e0: 71e6 d0bf 40a7 49c0 77f1 03c0 054e 2ebe
000003f0: a099 0cbd 4a24 aa3c d2fa b73e e84b 003e
0.025307272 0.0053218715 0.022291705 0.027151193 0.010831062 -0.024973392 0.029984381 -0.033424813
-0.021068225 0.00779669 -0.010716507 -0.028690025 -0.015548132 -0.012055099 0.008199152 0.0052801557
-0.009331593 0.03503235 -0.032744482 -0.0026102066 -0.0032369085 -0.034237467 -0.021818822 -0.021661121
-0.029758234 -0.017398724 -0.007244829 0.033997376 0.0053810515 -0.015917748 0.012430761 -0.0056641996
0.02959745 0.013533011 0.025394492 0.03126927 0.033177126 -0.02034755 -0.41821095 -0.39049998
-0.43194115 -0.07054158 -0.08046799 -0.12870628 -0.14268626 -0.18809251 -0.20097685 -0.2271857
0.01116335 -0.029082539 -0.028727869 -0.0064403974 0.029446881 0.0033755861 -0.012932574 0.02567834
-0.00305935 0.016782735 0.0067677237 0.95986146 1.375381 0.025960572 -0.9782041 -0.107626714
-1.0924176 -1.2136635 -1.3950229 -1.9283397 -2.3517056 -1.456486 -1.7960634 -2.3914123
-1.4151067 -2.3126483 -1.7872604 -1.0715685 -0.998472 -0.6853143 -0.21015418 -0.17570946
0.03087413 -0.015126403 -0.017248683 -0.020021431 -0.032380003 -0.026896134 -0.009935183 0.67548686
-0.32259926 -0.85623974 -2.3239977 -1.1951889 -1.800756 -2.5257494 -0.49467012 -1.0106716
-1.266313 -0.24982886 0.321765 0.331571 0.54555523 -0.14516266 -0.8940039 -0.19563156
-0.24749926 -1.2947234 -1.8771713 -0.31316715 0.3282627 -0.32482415 -1.1966174 0.028204117
-0.0038608387 0.02154072 -0.028488442 -0.48989424 -1.2746816 -2.291213 -1.569678 0.16951498
0.6296554 0.58912665 0.34753343 0.18817408 -0.63062006 0.40856257 -0.07190478 -0.23091796
-0.2861952 -0.0845714 0.120539814 -0.24103834 -0.51571965 -0.5038276 -0.17491522 -0.42345774
-1.7234515 -1.3633521 -1.2252074 0.004770994 0.0038339905 0.011150524 -1.0996424 -1.1238544
-1.5780001 -2.1887522 -0.66917074 -0.7638215 0.032864355 -0.14231108 0.17479372 -0.0688
-0.27162674 0.13705584 0.2987041 -0.07233908 0.1273952 -0.01445097 0.1309165 -0.3720399
-0.7058115 -0.5369234 -0.013702491 -0.8116417 -2.0266302 -1.8600291 -0.85364085 -0.36199397
-0.007889096 0.0018632375 -0.5839316 -0.39989248 -1.2859701 -0.7088365 -0.21183373 -0.38736358
-0.5146255 -1.0371023 -0.4172418 -0.25806797 -0.0091407485 0.25217786 0.1512998 0.19002345
-2.8274488e-05 0.15037984 0.40166304 0.06550762 -0.31697273 0.34486404 0.6134129 -0.6384289
-2.6244972 -2.9459198 -2.3215952 -0.9395575 -0.0056163464 -0.028010651 -0.6800764 -1.307186
-2.0436656 0.7643188 0.65874165 0.33923578 -0.67736435 0.07382393 0.15535857 0.38530433
0.31604207 0.39556032 0.034872655 0.16125628 0.44657975 0.56283695 0.5483412 0.48080558
0.17399892 -0.053166896 -0.1639707 -0.41912976 -2.470203 -2.8822532 -2.401155 0.04870705
0.0257399 -0.013737377 0.29772785 -0.31187695 -1.5836585 0.72024584 1.0755382 0.55003345
0.06102418 0.3999268 0.24733242 -0.32195303 0.40356615 0.22082047 0.6382001 0.49650618
1.1136956 0.89025974 0.6275276 0.058547225 0.28181297 0.19331025 0.19801185 0.21095413
-1.6320325 -3.1508331 -2.0616128 -0.1702195 -0.034326196 0.020769257 0.35933548 0.12528956

l1.bias f4 [10]
00000000: 0c07 d0bf 3171 fb3e db88 3e3f 363d 52bf
00000010: 9fa6 963e c623 01be f08b 3bbf 9822 c43f
00000020: 1fad 04be 3ab2 15bf
-1.625215 0.49109796 0.74427575 -0.8212465 0.29423997 -0.12611303 -0.732604 1.5323057
-0.12956665 -0.5847508

exp_avg f4 [10, 784]
00000000: 0000 0000 0000 0000 0000 0000 0000 0000
00000010: 0000 0000 0000 0000 0000 0000 0000 0000
00000020: 0000 0000 0000 0000 0000 0000 0000 0000
00000030: 0000 0000 0000 0000 0000 0000 0000 0000
00000040: 0000 0000 0000 0000 0000 0000 0000 0000
00000050: 0000 0000 0000 0000 0000 0000 0000 0000
00000060: 0000 0000 0000 0000 0000 0000 0000 0000
00000070: 0000 0000 0000 0000 0000 0000 0000 0000
00000080: 0000 0000 0000 0000 0000 0000 0000 0000
00000090: 0000 0000 0000 0000 0400 0000 0400 0000
000000a0: 0400 0000 0400 0000 0400 0000 0400 0000
000000b0: 0400 0000 0400 0000 0400 0000 0400 0000
000000c0: 0000 0000 0000 0000 0000 0000 0000 0000
000000d0: 0000 0000 0000 0000 0000 0000 0000 0000
000000e0: 0000 0000 0000 0000 0000 0000 6c9e 4134
000000f0: bce1 829e 0400 0000 25a1 ab28 4c22 c028
00000100: 792a ff27 bcde 450f 51a3 9d19 14d9 1323
00000110: 75c8 3f2d b908 9cb4 8023 8b34 88eb d236
00000120: 9911 8137 282f 3337 1d8d 7635 0759 0c2e
00000130: 3025 f32c 6d72 591c 0400 0000 0400 0000
00000140: 0000 0000 0000 0000 0000 0000 0000 0000
00000150: 0000 0000 0000 0000 0000 0000 a008 bc35
00000160: d2d4 a335 d11f cf9f a6de aa28 202e 3fa6
00000170: 2abb 0435 d8ed 9735 5b2d 07b2 401e 0b38
00000180: 85c8 7538 7698 6239 bea0 9339 3087 4138
00000190: 2e68 09b7 1838 2837 98b8 8e35 7995 ecb3
000001a0: c722 f4b3 a29e 98b3 ac95 ceb2 8936 aeb1
000001b0: 3722 002f 401f 8826 ebfb 8525 0000 0000
000001c0: 0000 0000 0000 0000 0000 0000 90d9 5a2b
000001d0: 586d 2c2b 77dc 042a df81 2036 1543 b334
000001e0: a356 0ab7 4bf9 adb8 d745 dbb8 b603 0fb8
000001f0: 9505 3b39 eff3 6239 f924 6c39 eede e038
00000200: c073 5c38 eab0 5b39 4e75 5d39 2448 8638
00000210: 265d 1db7 46cc cab6 52ad 86b5 c46d e0b3
00000220: d444 4d30 b71c 9726 240b ab24 0000 0000
00000230: 0000 0000 0000 0000 5f83 1731 0fed 0c2c
00000240: 83ef faaf 296e 4a31 65c0 7032 89d5 c834
00000250: 037a 69b8 efd7 f7b8 8cf7 bab8 f785 8db8
00000260: 9b57 1439 d073 4939 157d 0b39 41a8 16b9
00000270: fff0 a1b8 5b11 8539 800c 7f39 70c3 0c3a
00000280: 39aa 333a 6f68 443a 71dc 163a 96df 0439
00000290: 6b1d c435 ece4 ad25 0400 0000 0400 0000
000002a0: 0000 0000 0000 0000 5bf6 7415 0400 0000
000002b0: 112f 54b0 b532 0d32 65f5 10b6 bba3 1ab6
000002c0: 09b4 81b8 76e8 07b9 32d6 aeb8 3beb f237
000002d0: 532e 8539 1deb 3939 0d63 7238 a02b c938
000002e0: 0620 e639 7583 433a 58c0 673a ae2f 4c3a
000002f0: 40ca 103a e9e9 db39 101a e239 9905 c339
00000300: 1222 2b37 afb2 a736 c465 982d 1c4f 028f
00000310: 0000 0000 0000 0000 0400 0000 d934 8a04
00000320: b9de 32b0 45b4 1eb7 4af4 a0b7 aa39 33b8
00000330: 1940 e1b8 258d 1db9 a9e5 3ab8 f0d0 7639
00000340: 3ba3 8d39 e3aa 7c39 a425 de39 e4d7 273a
00000350: c473 2b3a 1d38 323a 7032 313a 9ae8 f339
00000360: ddb0 e539 f72b 8639 d29a 5b39 4733 e039
00000370: 7018 8a39 8bcf 6335 6db3 b320 fb72 898f
00000380: 0000 0000 0000 0000 11c0 05b7 3462 9eb8
00000390: cf70 88b8 8ab3 49b9 e8de 6eb9 6f0c 8cb9
000003a0: d2c5 99b9 4dec 9eb9 8414 55b9 0fc0 cd39
000003b0: dd60 243a 4f77 0f3a fa2a 013a 019f 023a
000003c0: f441 ca39 f4e3 c938 e4c2 afb6 57c4 9038
000003d0: 5c0d cd38 8e75 95b8 b84c 42b9 acd1 90b9
000003e0: 257b 0039 c00d 8cb2 8c23 d51f 0400 0000
000003f0: 0000 0000 0000 0000 d57c 5bb6 db2e 69b9
0.0 0.0 0.0 0.0 0.0 0.0 0.0 0.0
0.0 0.0 0.0 0.0 0.0 0.0 0.0 0.0
0.0 0.0 0.0 0.0 0.0 0.0 0.0 0.0
0.0 0.0 0.0 0.0 0.0 0.0 0.0 0.0
0.0 0.0 0.0 0.0 0.0 0.0 6e-45 6e-45
6e-45 6e-45 6e-45 6e-45 6e-45 6e-45 6e-45 6e-45
0.0 0.0 0.0 0.0 0.0 0.0 0.0 0.0
0.0 0.0 0.0 1.8032159e-07 -1.3857647e-20 6e-45 1.9054699e-14 2.1331156e-14
7.0822767e-15 9.755747e-30 1.6299382e-23 8.014854e-18 1.0901603e-11 -2.906361e-07 2.5916597e-07 6.285907e-06
1.5386193e-05 1.0680211e-05 9.184749e-07 3.1911387e-11 6.910604e-12 7.194717e-22 6e-45 6e-45
0.0 0.0 0.0 0.0 0.0 0.0 0.0 1.4009602e-06
1.2206385e-06 -8.7720546e-20 1.897035e-14 -6.632895e-16 4.944619e-07 1.1319598e-06 -7.868347e-09 3.3168355e-05
5.85993e-05 0.00021609836 0.00028157787 4.614069e-05 -8.190093e-06 1.0026641e-05 1.0633548e-06 -1.1016795e-07
-1.13684614e-07 -7.106907e-08 -2.404962e-08 -5.0702664e-09 1.1653688e-10 9.445366e-16 2.3242528e-16 0.0
0.0 0.0 0.0 7.7751087e-13 6.125842e-13 1.1800444e-13 2.3917453e-06 3.3390157e-07
-8.245613e-06 -8.295717e-05 -0.000104557424 -3.4097313e-05 0.00017835789 0.00021643912 0.00022520487 0.00010722676
5.2559888e-05 0.00020951373 0.00021119902 6.403055e-05 -9.379617e-06 -6.0438497e-06 -1.0034221e-06 -1.0450779e-07
7.4676376e-10 1.0485513e-15 7.41783e-17 0.0 0.0 0.0 2.2048068e-09 2.002679e-12
-4.5644918e-10 2.9457488e-09 1.4013584e-08 3.740827e-07 -5.566516e-05 -0.000118180986 -8.91528e-05 -6.748357e-05
0.00014147015 0.00019211997 0.0001330267 -0.00014367794 -7.721967e-05 0.00025380668 0.00024323352 0.00053696986
0.0006853673 0.00074923685 0.0005754894 0.00012671793 1.46117e-06 3.016584e-16 6e-45 6e-45
0.0 0.0 4.9469748e-26 6e-45 -7.7192036e-10 8.21881e-09 -2.160051e-06 -2.3043092e-06
-6.1847335e-05 -0.00012961202 -8.3368635e-05 2.8958186e-05 0.0002540225 0.00017730561 5.7789544e-05 9.592553e-05
0.00043892878 0.00074582483 0.0008840612 0.0007789087 0.00055233017 0.00041945212 0.00043125497 0.0003719747
1.0200327e-05 4.9977893e-06 1.7325592e-11 -6.424731e-30 0.0 0.0 6e-45 3.2492177e-36
-6.507253e-10 -9.459506e-06 -1.9187242e-05 -4.273063e-05 -0.00010740775 -0.00015025267 -4.4559743e-05 0.00023538223
0.00027015232 0.00024096253 0.00042371184 0.00064027146 0.0006540383 0.00067985227 0.000675953 0.00046521873
0.00043810057 0.00025591228 0.00020943143 0.00042762814 0.00026339618 8.4866105e-07 3.0442514e-19 -1.3553532e-29
0.0 0.0 -7.972137e-06 -7.552319e-05 -6.5059976e-05 -0.00019235737 -0.00022780488 -0.00026712145
-0.00029329822 -0.00030312166 -0.00020320906 0.00039243742 0.0006270537 0.00054727955 0.00049273635 0.00049828
0.0003857758 9.6268865e-05 -5.2380947e-06 6.903026e-05 9.77765e-05 -7.12677e-05 -0.00018529862 -0.00027622038
0.00012252906 -1.6304398e-08 9.0267816e-20 6e-45 0.0 0.0 -3.2706205e-06 -0.00022238067

exp_avg_sq f4 [10, 784]
00000000: 0000 0000 0000 0000 0000 0000 0000 0000
00000010: 0000 0000 0000 0000 0000 0000 0000 0000
00000020: 0000 0000 0000 0000 0000 0000 0000 0000
00000030: 0000 0000 0000 0000 0000 0000 0000 0000
00000040: 0000 0000 0000 0000 0000 0000 0000 0000
00000050: 0000 0000 0000 0000 0000 0000 0000 0000
00000060: 0000 0000 0000 0000 0000 0000 0000 0000
00000070: 0000 0000 0000 0000 0000 0000 0000 0000
00000080: 0000 0000 0000 0000 0000 0000 0000 0000
00000090: 0000 0000 0000 0000 bd40 0f28 6402 4a2b
000000a0: aa7f 7b2a 4866 802e bc7f c22f 3186 0e2e
000000b0: 29b8 322e bb5e 482c 0910 dc2a d94a 1829
000000c0: 0000 0000 0000 0000 0000 0000 0000 0000
000000d0: 0000 0000 0000 0000 0000 0000 0000 0000
000000e0: 0000 0000 0000 0000 0000 0000 e13d c32e
000000f0: 4dd2 362d 77fd 9d1d 07ce f133 baf2 4834
00000100: 0542 f232 47f5 1232 782a 7930 8283 8833
00000110: 8cdc cc33 c585 0833 e7c2 d833 e2f9 5232
00000120: de23 d333 3dc2 0234 279b f032 586f 1530
00000130: 339c a130 fcb9 562f b214 a52c f1dc 8628
00000140: 0000 0000 0000 0000 0000 0000 0000 0000
00000150: 0000 0000 0000 0000 0000 0000 9af8 6430
00000160: 6fe5 7031 4b0b 9f33 3d40 4734 9571 a734
00000170: f773 b534 eacd e934 7f6a 5235 a048 a235
00000180: 2f4d 9835 97c2 b935 7a65 ea35 e77c e535
00000190: 9891 1c36 8ec2 f535 b3fe b335 b020 8e35
000001a0: cfc5 4935 3310 1b35 c5f9 b134 ad2d d333
000001b0: 8c6e 9f33 35fa 2533 50ef 0731 0000 0000
000001c0: 0000 0000 0000 0000 0000 0000 b9e9 572e
000001d0: 3d8f 0730 8201 9f33 056a 8134 33ed 5835
000001e0: 1347 ae35 49b0 2a36 8532 6436 7edc 6d36
000001f0: b634 8936 eaa2 be36 031e f436 ceb0 0c37
00000200: a5fc 1a37 d5b9 0e37 b720 ce36 4061 b336
00000210: 3bcb 7a36 5d2c 0836 22c0 af35 831f 5235
00000220: 94a3 dc33 d519 1633 5988 5d2f 0000 0000
00000230: 0000 0000 0000 0000 330a 002f 3ad6 5031
00000240: 053c bd31 1b60 2934 1729 9135 6956 fb35
00000250: 6c5c 5a36 d1ed a336 d675 f736 fa5b 1a37
00000260: 54f3 4137 4b66 7f37 1627 a137 bea0 ac37
00000270: 9022 af37 212a af37 bc2c 8d37 53f1 5437
00000280: 56fe 1737 20df c136 10cc 4536 7437 9735
00000290: 0132 3934 a374 1c33 0d07 1032 909b 4e2f
000002a0: 0000 0000 0000 0000 0ba7 3c29 cc34 9b2e
000002b0: 5c33 d632 c960 f034 bf39 0536 0dc0 5536
000002c0: b32a b336 2734 1537 3510 3c37 4b3a 7a37
000002d0: 9466 9f37 a03d c637 b698 e837 cf1a 0238
000002e0: 3873 fe37 7a81 ea37 f36d d037 57ca aa37
000002f0: a8a8 7537 b0d8 1f37 6d8f b536 8635 f735
00000300: 418d 8a34 3199 8233 7dd0 a032 a01f 8c31
00000310: 0000 0000 0000 0000 bff9 7b2d 7146 0e31
00000320: aa16 5232 0052 7035 7b7f 3a36 62b4 a836
00000330: 9550 0437 44f0 4037 a7ed 7637 c3a7 a237
00000340: ce62 cd37 85fb f037 0e4c 0138 e987 0138
00000350: b68b 0438 b330 f037 06d7 da37 cce5 bd37
00000360: 692c 9e37 fc93 6237 e335 1037 2b5c 8336
00000370: 1166 2b35 0bfe 7e34 064c 2d33 e940 642f
00000380: 0000 0000 0000 0000 9040 c42f 1c92 ff32
00000390: b7ef a133 6d30 9f35 7aa8 8136 b97d ec36
000003a0: 93c3 3d37 3817 7237 01db 9b37 f6e8 cd37
000003b0: 3633 e237 6d15 e837 ae32 e737 1026 ee37
000003c0: 24fc ed37 6b7a e137 e2c8 cb37 6406 be37
000003d0: 9070 a937 9772 8a37 cecf 2d37 db5c ac36
000003e0: 4ef6 8c35 115a 7034 01b4 9033 e350 882e
000003f0: 0000 0000 0000 0000 b46f 892e 3bbf 0e34
0.0 0.0 0.0 0.0 0.0 0.0 0.0 0.0
0.0 0.0 0.0 0.0 0.0 0.0 0.0 0.0
0.0 0.0 0.0 0.0 0.0 0.0 0.0 0.0
0.0 0.0 0.0 0.0 0.0 0.0 0.0 0.0
0.0 0.0 0.0 0.0 0.0 0.0 7.9521325e-15 7.1768134e-13
2.2337571e-13 5.838935e-11 3.5379155e-10 3.2406248e-11 4.063608e-11 2.8474295e-12 3.9090977e-13 3.38157e-14
0.0 0.0 0.0 0.0 0.0 0.0 0.0 0.0
0.0 0.0 0.0 8.878565e-11 1.0392198e-11 4.181963e-21 1.1259913e-07 1.8714755e-07
2.820253e-08 8.554088e-09 9.0646024e-10 6.3569146e-08 9.5396075e-08 3.178663e-08 1.0093736e-07 1.2280426e-08
9.8319774e-08 1.2177857e-07 2.8010232e-08 5.4364113e-10 1.1758686e-09 1.9529262e-10 4.6918797e-12 1.4972807e-14
0.0 0.0 0.0 0.0 0.0 0.0 0.0 8.32992e-10
3.5055014e-09 7.406069e-08 1.8556689e-07 3.1188816e-07 3.3798253e-07 4.3549454e-07 7.838607e-07 1.2091077e-06
1.1347346e-06 1.3840207e-06 1.7463892e-06 1.7098181e-06 2.3330558e-06 1.8310545e-06 1.3410666e-06 1.0589338e-06
7.5166184e-07 5.776557e-07 3.315055e-07 9.8337615e-08 7.424123e-08 3.8644618e-08 1.978112e-09 0.0
0.0 0.0 0.0 4.9092928e-11 4.931627e-10 7.404289e-08 2.4105262e-07 8.081144e-07
1.2984696e-06 2.5434585e-06 3.4004054e-06 3.5444095e-06 4.0890545e-06 5.681407e-06 7.2752605e-06 8.385816e-06
9.237939e-06 8.507127e-06 6.143087e-06 5.345937e-06 3.7371199e-06 2.0291402e-06 1.3094434e-06 7.827695e-07
1.0274303e-07 3.494809e-08 2.0148273e-10 0.0 0.0 0.0 1.1645156e-10 3.0389757e-09
5.5074474e-09 1.5774314e-07 1.0815301e-06 1.8726106e-06 3.2538328e-06 4.885464e-06 7.3748915e-06 9.20053e-06
1.1560351e-05 1.5223001e-05 1.9210896e-05 2.057885e-05 2.087772e-05 2.0881243e-05 1.682934e-05 1.2692372e-05
9.059519e-06 5.7778234e-06 2.9474068e-06 1.1266516e-06 1.7247659e-07 3.642766e-08 8.383506e-09 1.8790858e-10
0.0 0.0 4.1889272e-14 7.0579625e-11 2.4936234e-08 4.4773904e-07 1.9852157e-06 3.1851262e-06
5.3395866e-06 8.893235e-06 1.1209447e-05 1.4914734e-05 1.9002044e-05 2.3632136e-05 2.7727667e-05 3.1019383e-05
3.0332812e-05 2.7955266e-05 2.4846731e-05 2.0359801e-05 1.4642406e-05 9.52759e-06 5.4109173e-06 1.8418511e-06
2.580728e-07 6.081462e-08 1.8721261e-08 4.0781316e-09 0.0 0.0 1.4323153e-11 2.070376e-09
1.2228762e-08 8.9526293e-07 2.7790363e-06 5.0277895e-06 7.886575e-06 1.1500033e-05 1.4718075e-05 1.9390025e-05
2.4483914e-05 2.8727352e-05 3.0826828e-05 3.0882573e-05 3.160137e-05 2.8632907e-05 2.6087753e-05 2.2637563e-05
1.8855748e-05 1.3505105e-05 8.595615e-06 3.914834e-06 6.385099e-07 2.3748014e-07 4.0348844e-08 2.075954e-10
0.0 0.0 3.5698067e-10 2.975235e-08 7.5407506e-08 1.1860517e-06 3.864113e-06 7.047984e-06
1.13108135e-05 1.442973e-05 1.8579422e-05 2.4546385e-05 2.6965146e-05 2.7666532e-05 2.7560945e-05 2.8389535e-05
2.8370014e-05 2.6879095e-05 2.429303e-05 2.265274e-05 2.0198786e-05 1.6504242e-05 1.0359987e-05 5.1368092e-06
1.0502497e-06 2.2384508e-07 6.738265e-08 6.198932e-11 0.0 0.0 6.249881e-11 1.329435e-07

exp_avg f4 [10]
00000000: 2cc9 ac39 a4a7 2738 16f2 703b b227 1ebb
00000010: ccfd b139 0400 0000 acb9 0c3b 5aa5 083b
00000020: 0400 0000 ad8f e2ba
0.0003295628 3.997203e-05 0.0036765388 -0.0024132547 0.00033949164 6e-45 0.0021472974 0.002085051
6e-45 -0.001728525

exp_avg_sq f4 [10]
00000000: d225 8738 e317 9538 aa72 1b39 bff2 3939
00000010: c868 4c39 915c b133 2123 be38 18c2 3d39
00000020: b284 f331 7e37 bf39
6.444346e-05 7.109323e-05 0.00014824668 0.00017733405 0.0001949399 8.2590425e-08 9.066449e-05 0.0001809675
7.0873165e-09 0.00036471704
