pytorchlightningimplementation/lightning_logs/version_3/checkpoints/epoch=2-step=2814.ckpt (torch, 99324 bytes, 6 tensors)

l1.weight f4 [10, 784]
0.030979816 -0.031057231 -0.0071362816 -0.030989882 0.027388286 -0.03052669 0.02939893 -0.017671121
0.035393905 0.0038261302 -0.013240861 0.004644692 0.0076278783 -0.009639872 -0.01812697 -0.009762058
-0.010934584 0.035647634 0.003386844 -0.02387219 0.026820924 0.007974468 -0.027186692 0.0010476969
0.030966211 0.0015200414 0.023930613 0.0029419065 -0.0032232516 0.008565128 -0.020512322 0.017066766
0.01146587 -0.013785409 -0.015589047 -0.032355696 0.015810043 -0.025457114 -0.31544515 -0.41895
-0.39842483 -0.11258181 -0.077658705 -0.15162796 -0.5794 -0.5483024 0.03363954 -0.008331282
0.0037425533 0.020681202 -0.008993851 -0.00030105188 0.030874562 -0.015765097 -0.0033619106 -0.0049459506
-0.026259884 -0.013183488 0.019307498 1.1341172 1.1683834 -0.0012918115 -0.39610636 0.7398222
-0.084093116 -1.1633382 -1.0208961 -1.9776311 -2.3799753 -1.6407415 -1.7627575 -1.854938
-1.4507128 -1.6163528 -1.4618613 -1.0377183 -1.860023 -0.67167103 -0.29262725 -0.17242251
0.0008822903 0.021436747 0.025640327 -0.021102026 0.01242419 -0.020115599 -0.017790744 1.0500964
0.5341538 -0.47064188 -1.3539354 0.06959871 -1.9875991 -2.5682597 -1.5834785 -1.8631307
-1.9493946 -0.67714065 -0.113595925 -0.05691283 0.18489422 -0.48951665 -1.0326811 -0.56856924
-0.33965945 -0.953717 -1.3447007 -0.028915694 0.29223353 -0.017320614 -0.7309321 -0.019298721
-0.0025968254 -0.031015074 -0.024833046 -0.43076646 -1.4679768 -1.230209 -0.97741395 0.37527046
0.13231829 -0.4648566 -0.44965774 -0.38452464 -0.73441136 0.09998539 -0.20395578 -0.4428717
-0.074219465 0.23209268 0.23418887 0.09774323 -0.09569608 -0.07182617 -0.22288293 -0.9312525
-1.2413179 -0.84508705 -0.7138467 0.023520876 -0.023622233 0.013848096 -0.9953479 -1.0451962
-1.1672095 -1.9281471 -1.9445432 -1.0981321 -0.038677868 -0.24677025 -0.19348806 -0.39706883
-0.25761193 0.062164664 0.24169798 0.29275763 0.40906718 0.12066291 0.16520688 -0.140441
-0.40084258 -0.32118568 -0.4327084 -1.1856384 -1.4207596 -1.4531552 -1.101099 -1.0196496
-0.030977914 0.0066755973 -0.4735783 -0.53369886 0.51722425 -1.7045745 -1.0251167 -0.30832973
-0.3287431 -1.0159335 -0.268923 -0.3244938 -0.06289745 -0.0354565 0.09984531 0.19432949
0.18209893 0.35776985 0.16803603 0.032282844 -0.50931907 0.43596178 0.48921648 -0.42477974
-1.8173065 -2.8969939 -2.0897045 -1.6520156 -0.03043429 -0.023067798 -0.4792588 -0.5829848
0.11884308 -0.25145558 0.46261707 0.10601908 -0.9899464 -0.16067274 -0.239007 -0.037939724
0.068718694 0.43097043 0.082769886 0.0070192427 0.32580897 0.5945829 0.39609757 0.5481597
0.32698575 -0.11982475 -0.25360394 -1.0320021 -2.4657407 -2.938539 -2.290235 -0.25311598
0.015526053 -0.024052434 0.19325699 -0.0059266714 -0.0408272 -0.31556305 0.96554714 0.22248423
-0.25615263 0.1986062 0.037108164 -0.33497134 0.34422338 0.20476328 0.44218272 0.32971984
0.8748628 0.6554096 0.77987885 0.47552976 0.5279926 0.09643676 -0.1604835 0.08704789
-1.7027577 -3.2195137 -1.5668373 0.022386286 0.009688769 -0.111914314 -0.3116763 -0.8126939
00000000: 62c9 fd3c bc6b febc 78d7 e9bb 7ede fdbc
00000010: 665d e03c 1c13 fabc 06d6 f03c 07c3 90bc
00000020: 33f9 103d d0bf 7a3b 32f0 58bc 8032 983b
00000030: 48f3 f93b 8ef0 1dbc 037f 94bc 0af1 1fbc
00000040: f826 33bc 4103 123d d0f5 5d3b 9c8f c3bc
00000050: 8eb7 db3c 58a7 023c a0b6 debc e052 893a
00000060: daac fd3c 203c c73a 220a c43c 00cd 403b
00000070: 303d 53bb c054 0c3c 7509 a8bc 9acf 8b3c
00000080: 58db 3b3c 32dc 61bc 3469 7fbc 6887 04bd
00000090: 1084 813c 708b d0bc 0782 a1be 9d80 d6be
000000a0: 57fe cbbe 4b91 e6bd 870b 9fbd 5c44 1bbe
000000b0: 8f53 14bf 8c5d 0cbf 9dc9 093d ee7f 08bc
000000c0: a045 753b a06b a93c f25a 13bc 80d6 9db9
000000d0: a6ec fc3c ce25 81bc 8053 5cbb a411 a2bb
000000e0: f81e d7bc 8eff 57bc c22a 9e3c c12a 913f
000000f0: 968d 953f 0052 a9ba 74ce cabe fd64 3d3f
00000100: 0339 acbd 44e8 94bf b9ac 82bf 0423 fdbf
00000110: 8451 18c0 d103 d2bf 0aa2 e1bf 9c6e edbf
00000120: f5b0 b9bf a6e4 cebf 451e bbbf f4d3 84bf
00000130: 3c15 eebf a2f2 2bbf 3dd3 95be 878f 30be
00000140: 8049 673a 1e9c af3c aa0b d23c 28de acbc
00000150: d48e 4b3c 78c9 a4bc e5bd 91bc 8f69 863f
00000160: 4ebe 083f f9f7 f0be c14d adbf c589 8e3d
00000170: a669 febf 5e5e 24c0 6caf cabf 117b eebf
00000180: c385 f9bf 1759 2dbf fba4 e8bd 6d1d 69bd
00000190: e954 3d3e eda1 fabe e52e 84bf c18d 11bf
000001a0: d8e7 adbe cc26 74bf 271f acbf 9be0 ecbc
000001b0: a29f 953e f6e3 8dbc 5e1e 3bbf 5a18 9ebc
000001c0: 802f 2abb 5313 febc ac6e cbbc 6c8d dcbe
000001d0: aae6 bbbf 7d77 9dbf cd37 7abf 7323 c03e
000001e0: 727e 073e af01 eebe 8a39 e6be 6ae0 c4be
000001f0: 6202 3cbf 24c5 cc3d c9d9 50be 14c0 e2be
00000200: 6000 98bd b4a9 6d3e 35cf 6f3e 9a2d c83d
00000210: 4efc c3bd 9919 93bd 6c3b 64be 9066 6ebf
00000220: 81e3 9ebf a057 58bf a8be 36bf daae c03c
00000230: 6a83 c1bc 20e3 623c 1fcf 7ebf fdc8 85bf
00000240: 1f67 95bf 86cd f6bf cbe6 f8bf 988f 8cbf
00000250: af6c 1ebd 57b1 7cbe bc21 46be 9b4c cbbe
00000260: b6e5 83be 60a0 7e3d ad7f 773e 54e4 953e
00000270: 4171 d13e 1e1e f73d fe2b 293e c4cf 0fbe
00000280: 3d3b cdbe 7372 a4be f58b ddbe 00c3 97bf
00000290: 73db b5bf fd00 babf d0f0 8cbf e183 82bf
000002a0: 65c5 fdbc f8be da3b db78 f2be 7da0 08bf
000002b0: cf68 043f 7f2f dabf 0637 83bf 65dd 9dbe
000002c0: 0451 a8be 1c0a 82bf 47b0 89be 0d24 a6be
000002d0: 61d0 80bd d63a 11bd b37b cc3d 4ffe 463e
000002e0: 2478 3a3e 9c2d b73e a311 2c3e 043b 043d
000002f0: bc62 02bf 6236 df3e 957a fa3e bb7c d9be
00000300: 809d e8bf 5968 39c0 b8bd 05c0 3f75 d3bf
00000310: 5551 f9bc aef8 bcbc 6961 f5be 7e3e 15bf
00000320: 0064 f33d c9be 80be 25dc ec3e 8820 d93d
00000330: 216d 7dbf 6587 24be 40be 74be af66 1bbd
00000340: 63bc 8c3d 28a8 dc3e 4283 a93d ad01 e63b
00000350: 6fd0 a63e 9636 183f 4dcd ca3e 3254 0c3f
00000360: ad6a a73e ae66 f5bd 60d8 81be a518 84bf
00000370: b2ce 1dc0 0611 3cc0 3693 12c0 6b98 81be
00000380: fc60 7e3c 9c09 c5bc 29e5 453e 8634 c2bb
00000390: 6c3a 27bd 7b91 a1be 192e 773f e8d2 633e
000003a0: 7026 83be 6c5f 4b3e bbfe 173d 5d81 abbe
000003b0: 0c3e b03e 77ad 513e c665 e23e 0ad1 a83e
000003c0: 02f7 5f3f ecc8 273f 24a6 473f a378 f33e
000003d0: 862a 073f a380 c53d c955 24be 2a46 b23d
000003e0: f7f3 d9bf 830c 4ec0 208e c8bf 7263 b73c
000003f0: a4bd 1e3c 5533 e5bd 0994 9fbe b50c 50bf

l1.bias f4 [10]
-1.7340554 0.45445976 -0.08735899 -1.3808594 -0.12036186 -0.10892297 -1.3556213 1.1176465
-0.09358303 -1.2079302
00000000: 87f5 ddbf f3ae e83e 45e9 b2bd 00c0 b0bf
00000010: 4780 f6bd 0213 dfbd 0085 adbf 0a0f 8f3f
00000020: 76a8 bfbd 759d 9abf

exp_avg f4 [10, 784]
0.0 0.0 0.0 0.0 0.0 0.0 0.0 0.0
0.0 0.0 0.0 0.0 0.0 0.0 0.0 0.0
0.0 0.0 0.0 0.0 0.0 0.0 0.0 0.0
0.0 0.0 0.0 0.0 0.0 0.0 0.0 0.0
0.0 0.0 0.0 0.0 0.0 0.0 6e-45 6e-45
6e-45 6e-45 6e-45 6e-45 6e-45 6e-45 0.0 0.0
0.0 0.0 0.0 0.0 0.0 0.0 0.0 0.0
0.0 0.0 0.0 6.122829e-07 -1.1019966e-20 0.0 6e-45 1.0039173e-36
3.2536172e-36 7.6126094e-26 1.6593643e-23 2.047825e-21 2.6852314e-21 -7.392859e-07 -4.872565e-07 6.8374216e-06
1.5772393e-05 8.655528e-06 1.2036037e-06 3.208523e-19 4.2670873e-18 1.1947011e-19 6e-45 6e-45
0.0 0.0 0.0 0.0 0.0 0.0 0.0 1.2088823e-05
0.000110456574 -9.727742e-19 -5.6624173e-19 6.5164934e-34 -1.1485848e-09 -1.4287426e-09 2.1919864e-09 -8.168291e-06
-2.6618565e-05 -1.4674926e-05 -4.4033186e-06 -1.4408431e-05 -9.389446e-06 6.556257e-05 0.00038667227 0.00040306605
0.00042493286 0.0003464258 6.0863005e-07 -1.5495085e-06 -1.5103208e-22 -4.323667e-23 6e-45 0.0
0.0 0.0 0.0 1.2830747e-05 -7.093304e-30 -1.4205388e-16 -1.8724006e-13 -1.803991e-09
-6.82434e-09 -4.1814957e-08 -1.548872e-06 -3.2891967e-05 -5.0779912e-05 -4.5409266e-05 -6.0843377e-05 -5.89783e-05
0.0003671767 0.0011636139 0.001325465 0.00071186916 0.00040015345 0.00043473212 -9.152806e-08 -1.2643828e-06
1.740228e-09 3.833824e-10 6e-45 0.0 0.0 0.0 6e-45 0.000100813
-2.1572402e-11 -1.1037058e-11 -9.914216e-09 -3.998418e-08 -1.2440139e-06 -2.4455537e-06 -2.6728963e-05 -0.0001123133
-0.00014718769 -0.00017818528 -0.000170541 -0.00012614462 0.000534452 0.00084606523 0.0010996524 0.0008255966
0.00014250739 6.2941874e-09 -0.00016925574 -5.6960693e-05 -1.1737371e-09 -3.3969623e-25 9.316902e-31 2.2470174e-30
0.0 0.0 6e-45 6e-45 -7.0911876e-09 -9.6036686e-08 -2.708647e-07 -1.7679257e-06
-7.217402e-06 -9.518945e-05 -0.00020889964 -0.00022217767 -0.00024038316 -0.00022777639 -0.00019424401 0.00037500722
0.00087921525 0.00094829994 0.0013083108 0.00045843574 -1.1559243e-05 -0.00031321376 -0.00024172076 -3.1818316e-05
1.6647524e-05 1.5481508e-05 -1.7160779e-21 -2.9160147e-31 0.0 0.0 6e-45 1.3708764e-38
-2.4017078e-08 -3.3021507e-07 -4.563472e-07 -7.700763e-06 -5.719697e-05 -0.00019918766 -0.0002444471 -0.00025083672
-0.00023289924 -3.92446e-05 0.00061782234 0.0007959323 0.0009969764 0.0010835427 0.0012152026 0.0007575588
0.0006345978 -8.696251e-05 -0.0003625271 -0.00023458211 0.00014240708 2.6289338e-06 5.957192e-23 -1.14253206e-29
0.0 0.0 -9.1137736e-08 -1.0983264e-07 -2.681918e-08 -3.7006552e-07 -2.201569e-06 -7.514723e-05
-0.00015959126 -0.00026140967 -0.00024014058 6.627324e-06 0.00015898277 0.00015044375 0.0006269253 0.0007205396
0.0010856639 0.0013398502 0.0012450274 0.00063944526 0.0005384736 -0.00014288138 -0.000571731 -0.0006257369
5.9014314e-05 -1.3423536e-07 1.4892974e-22 0.0 0.0 6e-45 -3.738984e-08 -4.6737295e-08
00000000: 0000 0000 0000 0000 0000 0000 0000 0000
00000010: 0000 0000 0000 0000 0000 0000 0000 0000
00000020: 0000 0000 0000 0000 0000 0000 0000 0000
00000030: 0000 0000 0000 0000 0000 0000 0000 0000
00000040: 0000 0000 0000 0000 0000 0000 0000 0000
00000050: 0000 0000 0000 0000 0000 0000 0000 0000
00000060: 0000 0000 0000 0000 0000 0000 0000 0000
00000070: 0000 0000 0000 0000 0000 0000 0000 0000
00000080: 0000 0000 0000 0000 0000 0000 0000 0000
00000090: 0000 0000 0000 0000 0400 0000 0400 0000
000000a0: 0400 0000 0400 0000 0400 0000 0400 0000
000000b0: 0400 0000 0400 0000 0000 0000 0000 0000
000000c0: 0000 0000 0000 0000 0000 0000 0000 0000
000000d0: 0000 0000 0000 0000 0000 0000 0000 0000
000000e0: 0000 0000 0000 0000 0000 0000 c35b 2435
000000f0: 4929 509e 0000 0000 0400 0000 c4ce aa03
00000100: c164 8a04 a57a bc15 df7b a019 b2ba 1a1d
00000110: eee3 4a1d 5773 46b5 03cc 02b5 016d e536
00000120: f54e 8437 3637 1137 828b a135 d465 bd20
00000130: 806d 9d22 a00b 0d20 0400 0000 0400 0000
00000140: 0000 0000 0000 0000 0000 0000 0000 0000
00000150: 0000 0000 0000 0000 0000 0000 19d1 4a37
00000160: eca4 e738 5f8e 8fa1 0420 27a1 328c 5808
00000170: 3cdc 9db0 695d c4b0 d5a1 1631 8b0a 09b7
00000180: ef4a dfb7 5434 76b7 38c0 93b6 bdbb 71b7
00000190: 5d87 1db7 a37e 8938 46ba ca39 9c52 d339
000001a0: 86c9 de39 7ca0 b539 bd60 2335 b5f8 cfb5
000001b0: 2a96 369b 6814 519a 0400 0000 0000 0000
000001c0: 0000 0000 0000 0000 0000 0000 a443 5737
000001d0: 8ade 0f8f e8c6 23a5 46d0 52aa 4af0 f7b0
000001e0: 887b eab1 0898 33b3 d6e2 cfb5 7bf5 09b8
000001f0: 84fc 54b8 d475 3eb8 1432 7fb8 785f 77b8
00000200: 9f81 c039 6784 983a 3abb ad3a bb9c 3a3a
00000210: b0cb d139 c2ec e339 158e c4b3 ddb3 a9b5
00000220: d42c ef30 47c4 d22f 0400 0000 0000 0000
00000230: 0000 0000 0000 0000 0400 0000 916b d338
00000240: bbc0 bdad 7e2a 42ad 2f53 2ab2 12bb 2bb3
00000250: fef7 a6b5 4b1e 24b6 0338 e0b7 be89 ebb8
00000260: 6556 1ab9 3fd7 3ab9 40d3 32b9 b045 04b9
00000270: 771a 0c3a 7aca 5d3a 3622 903a da6c 583a
00000280: 096e 1539 4244 d831 3e7a 31b9 14e9 6eb8
00000290: 3451 a1b0 0443 d296 e62c 970d ba4c 360e
000002a0: 0000 0000 0000 0000 0400 0000 0400 0000
000002b0: bfa6 f3b1 ba3c ceb3 5c6b 91b4 7749 edb5
000002c0: 032d f2b6 72a0 c7b8 120c 5bb9 5df8 68b9
000002d0: 5d0f 7cb9 42d7 6eb9 fbad 4bb9 9e9c c439
000002e0: 237b 663a 5597 783a a07b ab3a 345a f039
000002f0: 92ee 41b7 d736 a4b9 6c76 7db9 a874 05b8
00000300: 49a6 8b37 49de 8137 c6a9 019d 9b42 bd8c
00000310: 0000 0000 0000 0000 0400 0000 7546 9500
00000320: 1d4e ceb2 6a48 b1b4 e2ff f4b4 8632 01b7
00000330: c7e6 6fb8 08dd 50b9 2229 80b9 bc82 83b9
00000340: 6a36 74b9 929a 24b8 5bf5 213a 1da6 503a
00000350: faac 823a a905 8e3a 6f47 9f3a e996 463a
00000360: 235b 263a a45f b6b8 9011 beb9 28fa 75b9
00000370: 1c53 1539 bd6c 3036 3c09 901a a8bb 678f
00000380: 0000 0000 0000 0000 80b7 c3b3 22dd ebb3
00000390: 0060 e6b2 6bad c6b4 abbe 13b6 5d98 9db8
000003a0: f457 27b9 d00d 89b9 3fce 7bb9 4860 de36
000003b0: 9db4 2639 70c0 1d39 3f58 243a 98e2 3c3a
000003c0: d64c 8e3a ea9d af3a 3030 a33a 72a0 273a
000003d0: 5a28 0d3a 6ed2 15b9 38e0 15ba 7e08 24ba
000003e0: 2386 7738 5622 10b4 860b 341b 0000 0000
000003f0: 0000 0000 0400 0000 9096 20b3 33bc 48b3

exp_avg_sq f4 [10, 784]
0.0 0.0 0.0 0.0 0.0 0.0 0.0 0.0
0.0 0.0 0.0 0.0 0.0 0.0 0.0 0.0
0.0 0.0 0.0 0.0 0.0 0.0 0.0 0.0
0.0 0.0 0.0 0.0 0.0 0.0 0.0 0.0
0.0 0.0 0.0 0.0 0.0 0.0 5.953172e-17 5.3727444e-15
1.6722472e-15 1.1066368e-10 6.705289e-10 1.8306785e-11 3.485125e-14 2.5922442e-15 0.0 0.0
0.0 0.0 0.0 0.0 0.0 0.0 0.0 0.0
0.0 0.0 0.0 3.0778374e-10 3.6591185e-11 0.0 3.4069178e-10 2.5374055e-08
4.056582e-09 2.3936126e-09 6.12478e-10 6.208162e-08 1.1824538e-07 5.5825126e-08 2.0081674e-07 2.1853348e-08
1.1298079e-07 1.2567983e-07 9.8033945e-09 3.5205914e-09 4.771582e-10 1.6446872e-11 1.5028821e-12 1.6222358e-15
0.0 0.0 0.0 0.0 0.0 0.0 0.0 2.5999096e-09
3.4194743e-09 5.6393854e-09 6.0329444e-09 4.620889e-08 3.2168856e-08 2.9715744e-07 5.9870695e-07 9.4251607e-07
9.2910756e-07 1.1521151e-06 1.3637951e-06 1.3642662e-06 2.0777968e-06 1.6478207e-06 1.5173525e-06 1.1177586e-06
5.6197257e-07 3.5310921e-07 1.9086082e-07 5.5448908e-08 2.9685902e-08 1.41353595e-08 7.117724e-10 0.0
0.0 0.0 0.0 2.7221392e-10 3.797915e-10 6.4283916e-09 7.170192e-09 3.7041495e-08
2.6630812e-07 1.2919295e-06 2.3543942e-06 2.5122822e-06 3.3596914e-06 4.7548565e-06 6.461567e-06 7.8561625e-06
8.565238e-06 8.022956e-06 6.5280847e-06 5.5537366e-06 3.6380304e-06 2.0510217e-06 9.569624e-07 4.5280402e-07
1.66375e-07 5.162598e-08 7.249823e-11 0.0 0.0 0.0 8.0947865e-10 4.3238675e-09
3.3827534e-09 1.6723583e-08 8.239491e-08 3.7891638e-07 1.1058085e-06 2.587184e-06 4.9525493e-06 6.973498e-06
1.0221769e-05 1.3774039e-05 1.7221684e-05 1.8900657e-05 1.933343e-05 2.0478028e-05 1.6256954e-05 1.2093104e-05
8.18794e-06 4.7149883e-06 2.1067372e-06 8.884132e-07 2.144845e-07 3.9013447e-08 3.3087342e-09 1.5189875e-09
0.0 0.0 3.061328e-12 8.707794e-11 1.7355312e-08 7.763885e-08 3.939562e-07 1.3924426e-06
3.0051544e-06 7.1331065e-06 1.0381984e-05 1.4062531e-05 1.8443503e-05 2.2983953e-05 2.4604551e-05 2.7461805e-05
2.7920189e-05 2.6190895e-05 2.3164843e-05 1.811309e-05 1.3377889e-05 9.130656e-06 4.5882375e-06 1.7996084e-06
2.9144036e-07 6.1325366e-08 2.7692383e-08 1.5404135e-08 0.0 0.0 1.0414586e-09 2.4460107e-09
3.7340907e-08 1.2981619e-07 9.543243e-07 2.6791545e-06 6.313284e-06 1.0791516e-05 1.5327003e-05 2.0296482e-05
2.3635286e-05 2.5264966e-05 2.69169e-05 2.693033e-05 2.8026436e-05 2.826558e-05 2.7539058e-05 2.330188e-05
1.8795916e-05 1.3871056e-05 9.054553e-06 3.8168228e-06 7.1447386e-07 2.477002e-07 3.104678e-08 3.251612e-10
0.0 0.0 3.169284e-10 4.880975e-09 3.0524298e-08 3.0070683e-07 1.8383e-06 4.9459586e-06
9.9659255e-06 1.5331512e-05 1.9384495e-05 2.3459772e-05 2.4364299e-05 2.5438738e-05 2.5329437e-05 2.518375e-05
2.6361971e-05 2.6605563e-05 2.6512886e-05 2.458554e-05 2.158102e-05 1.6645949e-05 1.0617898e-05 5.271369e-06
1.1018191e-06 2.7281598e-07 4.407212e-08 0.0 0.0 1.9730837e-11 7.2586395e-11 8.209157e-08
00000000: 0000 0000 0000 0000 0000 0000 0000 0000
00000010: 0000 0000 0000 0000 0000 0000 0000 0000
00000020: 0000 0000 0000 0000 0000 0000 0000 0000
00000030: 0000 0000 0000 0000 0000 0000 0000 0000
00000040: 0000 0000 0000 0000 0000 0000 0000 0000
00000050: 0000 0000 0000 0000 0000 0000 0000 0000
00000060: 0000 0000 0000 0000 0000 0000 0000 0000
00000070: 0000 0000 0000 0000 0000 0000 0000 0000
00000080: 0000 0000 0000 0000 0000 0000 0000 0000
00000090: 0000 0000 0000 0000 5345 8924 d292 c127
000000a0: 08ff f026 1d5a f32e 4750 3830 3707 a12d
000000b0: c1f4 1c29 77ca 3a27 0000 0000 0000 0000
000000c0: 0000 0000 0000 0000 0000 0000 0000 0000
000000d0: 0000 0000 0000 0000 0000 0000 0000 0000
000000e0: 0000 0000 0000 0000 0000 0000 b634 a92f
000000f0: 03ee 202e 0000 0000 1b4c bb2f 23f6 d932
00000100: 1362 8b31 e17c 2431 4f5b 2830 bb51 8533
00000110: 16ee fd33 60c4 6f33 16a0 5734 05b8 bb32
00000120: d99f f233 9cf2 0634 c96b 2832 e6ee 7131
00000130: 0629 0330 10ab 902d 0983 d32b f0c9 e926
00000140: 0000 0000 0000 0000 0000 0000 0000 0000
00000150: 0000 0000 0000 0000 0000 0000 18aa 3231
00000160: 07fc 6a31 8fc4 c131 574a cf31 3677 4633
00000170: 082a 0a33 0289 9f34 d4b6 2035 3601 7d35
00000180: c967 7935 60a2 9a35 a50b b735 d41b b735
00000190: 4770 0b36 b02a dd35 d6a7 cb35 e505 9635
000001a0: 76da 1635 f692 bd34 6cef 4c34 b826 6e33
000001b0: fdff fe32 f8d7 7232 88a6 4330 0000 0000
000001c0: 0000 0000 0000 0000 0000 0000 b4a6 952f
000001d0: e7ca d02f bbe0 dc31 ad5d f631 8e17 1f33
000001e0: 1cf9 8e34 5c66 ad35 2f00 1e36 ae98 2836
000001f0: 0f77 6136 e88b 9f36 70d0 d836 f6cd 0337
00000200: 6bb3 0f37 559a 0637 d20b db36 3c5a ba36
00000210: e324 7436 49a4 0936 fa70 8035 e918 f334
00000220: d0a4 3234 5ebb 5d33 e06c 9f2e 0000 0000
00000230: 0000 0000 0000 0000 ff81 5e30 2491 9431
00000240: 0776 6831 8ca7 8f32 15f1 b033 df6d cb34
00000250: 4a6b 9435 7c9f 2d36 132e a636 e4fd e936
00000260: 2a7e 2b37 0c17 6737 4977 9037 da8c 9e37
00000270: 3a2e a237 3bc8 ab37 8b5f 8837 7ce3 4a37
00000280: ef5e 0937 7135 9e36 7861 0d36 4a7b 6e35
00000290: 0d4d 6634 bd8f 2733 de5f 6331 9fc4 d030
000002a0: 0000 0000 0000 0000 fc6b 572c 867c bf2e
000002b0: bc14 9532 69ba a633 ee80 d334 f7e3 ba35
000002c0: 29ac 4936 eb58 ef36 482e 2e37 1cee 6b37
000002d0: 1fb7 9a37 aacd c037 df65 ce37 c75d e637
000002e0: 2636 ea37 85b4 db37 1f52 c237 91f1 9737
000002f0: 9971 6037 de2f 1937 a9f4 9936 138a f135
00000300: 4277 9c34 fab1 8333 32e0 ed32 0d52 8432
00000310: 0000 0000 0000 0000 1123 8f30 ad16 2831
00000320: c360 2033 9a63 0b34 5516 8035 86cb 3336
00000330: b2d6 d336 350d 3537 7d92 8037 5d42 aa37
00000340: 6444 c637 1af0 d337 9acb e137 71e8 e137
00000350: 501a eb37 df1b ed37 ad03 e737 6878 c337
00000360: ecab 9d37 bbb7 6837 02e9 1737 4212 8036
00000370: 45ca 3f35 a8fb 8434 4c58 0533 5fc2 b22f
00000380: 0000 0000 0000 0000 b53b ae2f 83b5 a731
00000390: d219 0333 d570 a134 82bb f635 76f5 a536
000003a0: 5333 2737 2c9c 8037 e39b a237 7acb c437
000003b0: ef61 cc37 4665 d537 8d7a d437 b141 d337
000003c0: e723 dd37 032f df37 fd67 de37 0c3d ce37
000003d0: e308 b537 e7a2 8b37 8623 3237 b7e0 b036
000003e0: 37e2 9335 8b77 9234 cf49 3d33 0000 0000
000003f0: 0000 0000 e58d ad2d 829e 9f2e 514a b033

exp_avg f4 [10]
0.00064948207 9.083217e-05 6e-45 -0.0015273077 6e-45 6e-45 0.0017535056 0.0040143896
6e-45 -0.0045986394
00000000: 0142 2a3a 267d be38 0400 0000 f12f c8ba
00000010: 0400 0000 0400 0000 e2d5 e53a 248b 833b
00000020: 0400 0000 2fb0 96bb

exp_avg_sq f4 [10]
6.4003325e-05 6.0030772e-05 3.1231184e-07 0.00015561609 3.706377e-10 1.0745723e-07 0.00010010002 0.00015877902
9.6883916e-08 0.0003208937
00000000: 8639 8638 8dc9 7b38 d0ab a734 e02c 2339
00000010: 9ec2 cb2f 3dc3 e633 caec d138 eb7d 2639
00000020: 7f0e d033 a03d a839
